GodkendteVSrandoms/face_embedding_model.pth (torch, 442947 bytes, 8 tensors)

conv.0.weight f4 [32, 3, 3, 3]
0	0xbe4e1c4f	-0.20127986
1	0xbe133464	-0.14375454
2	0xbbb6d8b8	-0.005580034
3	0xbde59e41	-0.11211825
4	0x3cd1d22e	0.025612917
5	0xbe47ec70	-0.19523787
6	0xbe0163d0	-0.12635732
7	0xbc78816a	-0.0151675735
8	0x3e0d4f44	0.13799769
9	0xbd5277f0	-0.051383913
10	0x3d804887	0.062638335
11	0x3d234e29	0.03986946
12	0xbdbdd179	-0.09268469
13	0xbd910494	-0.07080951
14	0xbc73d0b5	-0.014881303
15	0xbdac9711	-0.08427251
16	0x3e20fada	0.15720692
17	0xbd72ef34	-0.059310153
18	0xbd9aed02	-0.07564737
19	0x3cdfd003	0.027320867
20	0x3d90a78a	0.070632055
21	0x3dbde826	0.092727944
22	0x3da4ffa6	0.080565736
23	0xbd809e09	-0.06280143
24	0x3d725db9	0.059171412
25	0xbd3c1d0f	-0.04592615
26	0xbe2e8b34	-0.1704529
27	0xbe0dccee	-0.13847706
28	0x3e1cf595	0.15328057
29	0x3d873485	0.06601814
30	0xbdfbb6d2	-0.122907296
31	0x3cbc2a50	0.022969395
32	0x3d8a7f26	0.06762533
33	0xbd4e4c6c	-0.05036585
34	0xbcac9dd5	-0.021071354
35	0x3d00bb8d	0.031428862
36	0xbb93ca0d	-0.0045101703
37	0xbc857ab4	-0.016293861
38	0x3d938b5b	0.07204314
39	0xbdbb5481	-0.09146977
40	0x3d8b0297	0.06787603
41	0xbd7d71a5	-0.061875958
42	0x3e0fd343	0.14045434
43	0xbd6eec58	-0.058330864
44	0x3dde8c51	0.10866607
45	0xbd88bedd	-0.06677029
46	0x3e0de584	0.13857085
47	0xbc1f4fb1	-0.00972359
48	0xbe169596	-0.147055
49	0xbd69f33e	-0.05711674
50	0x3e009284	0.12555891
51	0xbc135964	-0.00899348
52	0x3dcc88ea	0.09987052
53	0xbd57b868	-0.052666098
54	0x3e0f4d09	0.1399423
55	0xbd85418e	-0.06506644
56	0xbba7d9aa	-0.005122383
57	0xbe466e59	-0.19378032
58	0x3cccbbf0	0.02499196
59	0xbe24c9c2	-0.1609259
60	0x3da29817	0.07939165
61	0xbda4ae10	-0.08041012
62	0xbe46367d	-0.19356723
63	0xbdaaf44f	-0.083473794
64	0xbe424430	-0.18971324
65	0x3e43ff4c	0.19140357
66	0xbde1a10f	-0.110170476
67	0xbdedb24e	-0.116062745
68	0xbdf31097	-0.11868399
69	0x3df56285	0.11981682
70	0xbe40503d	-0.18780608
71	0xbe382b4c	-0.17985266
72	0x3e263936	0.16232762
73	0xbe171f31	-0.14757992
74	0xbd8102ec	-0.062993854
75	0xbe136a37	-0.14395986
76	0xbb845d9f	-0.004039481
77	0x3d001c02	0.03127671
78	0x3d65fa50	0.05614692
79	0xbe26d298	-0.16291273
80	0x3e00350f	0.1252024
81	0x3e0d9d3f	0.13829516
82	0xbd21fea0	-0.03954947
83	0x3c074e37	0.008258394
84	0x3e0ccff5	0.13751204
85	0x3d54fb97	0.051997747
86	0x3d224cce	0.039624028
87	0xbd976f0c	-0.073942274
88	0x3d520ca8	0.0512816
89	0xbe183796	-0.14864954
90	0xbe3eebd1	-0.18644644
91	0x3d9cf11d	0.07663176
92	0x3d07f429	0.033191834
93	0xbe23559f	-0.1595063
94	0x3de75c5f	0.11296915
95	0x3e22613e	0.15857407
96	0xbe27931c	-0.16364712
97	0x3ce50f5f	0.027961431
98	0xbdf63409	-0.12021644
99	0xbd570a1a	-0.052499868
100	0x3db8979b	0.090132914
101	0x3e3bb53b	0.18330853
102	0xbd32ad43	-0.043622267
103	0xbc9f42f9	-0.019441115
104	0xbd2c186f	-0.04201549
105	0x3de91811	0.113815434
106	0x3d628d72	0.055310674
107	0x3e1c27fc	0.15249628
108	0xbdb04aa0	-0.086079836
109	0xbb8a2ca8	-0.004216749
110	0xbdfdfd97	-0.12401884
111	0x3e3ae174	0.18250066
112	0x3e0d5f1c	0.13805813
113	0xbdd8a5ad	-0.10578475
114	0xbe189976	-0.1490229
115	0x3c8dc502	0.017305855
116	0xbc8e4286	-0.017365705
117	0x3e0617d9	0.13095035
118	0x3dc22576	0.09479801
119	0x3da96e5c	0.082730025
120	0x3d65f1f7	0.05613896
121	0x3db3bdd3	0.087764405
122	0xbd98dfbc	-0.07464549
123	0x3debb048	0.11508232
124	0xbd6be322	-0.057589658
125	0xbdffd880	-0.12492466
126	0xbe0fc792	-0.14040974
127	0xbe30fb3d	-0.1728334
128	0x3d3ccd65	0.046094317
129	0x3d8893c9	0.06668813
130	0xbdb246ef	-0.08704936
131	0x3e448444	0.1919108
132	0x3c19f280	0.009396195
133	0xbdc38436	-0.095467016
134	0xbd81cff7	-0.06338494
135	0x3d3e52eb	0.046465795
136	0x3e0afe2a	0.13573518
137	0x3d9fbe44	0.07799962
138	0x3a739709	0.00092922203
139	0xbd5e5896	-0.0542837
140	0xbde8cef3	-0.113675974
141	0x3e0983aa	0.13429132
142	0x3d8ded21	0.069299944
143	0x3ce8589f	0.02836257
144	0x3e0a7108	0.1351968
145	0xbd21aaa8	-0.03946939
146	0x3e2556e9	0.16146435
147	0xbe3f5def	-0.18688177
148	0xbc51159f	-0.0127615025
149	0xbcf05607	-0.029337896
150	0x3cec9817	0.028881116
151	0xbd36a423	-0.044590127
152	0xbe378f83	-0.17925839
153	0x3dfb030b	0.1225644
154	0xbdfd7a1d	-0.12376807
155	0xbdb2c4be	-0.08728932
156	0xbbcfc135	-0.0063401707
157	0xbc68a06b	-0.014198403
158	0x3e24351c	0.16035885
159	0x3d0edc38	0.034877986
160	0xbd6a6287	-0.05722287
161	0xbdedb11e	-0.11606048
162	0xbe0692a2	-0.13141873
163	0x3e318920	0.17337465
164	0x3ddd1392	0.10794748
165	0xbe1a9d8f	-0.15099166
166	0x3e424e8a	0.18975273
167	0xbde3d5c8	-0.1112476
168	0xbdff2505	-0.12458233
169	0x3e378682	0.17922404
170	0x3dc74eab	0.097318016
171	0x3da888ed	0.082292415
172	0xbd55ee94	-0.05222948
173	0xb8f00759	-0.000114454604
174	0x3d1b1eb0	0.037871063
175	0x3e260ed7	0.16216598
176	0x3c81ce68	0.015845492
177	0xbd097a9f	-0.033564206
178	0xbd44befb	-0.048033696
179	0xbc7475e8	-0.014920689
180	0xbe11da4e	-0.14243433
181	0xbddf91c0	-0.109164715
182	0x3d0bba13	0.034113
183	0xbdb21384	-0.086951286
184	0xbce5d6f2	-0.028056595
185	0x3d4644ee	0.04840558
186	0xbdf251c4	-0.11832002
187	0xbcf3e3f2	-0.029771779
188	0x3dba92a9	0.091100045
189	0xbdb46d07	-0.08809858
190	0xbdd365ce	-0.10322152
191	0x3dbc01a3	0.0918
192	0x3e189967	0.14902268
193	0x3de790b2	0.11306895
194	0xbe11ba77	-0.14231287
195	0xbe1ae708	-0.15127194
196	0x3e1bfeb2	0.15233877
197	0x3d171194	0.036882
198	0xbd9ff699	-0.07810707
199	0xbb822cc8	-0.0039726235
200	0x3ccb4eec	0.024817906
201	0xbc849290	-0.016183168
202	0x3e08f89d	0.13376088
203	0x3a5b63d0	0.000836906
204	0x3dfc64a1	0.12323881
205	0x3e2d5b08	0.16929257
206	0xbc7162e5	-0.014733051
207	0x3d698d7a	0.05701969
208	0xbc4a0e58	-0.012332521
209	0xbdfb9a72	-0.122853175
210	0x3e33760a	0.17525497
211	0xbd16bc8f	-0.036800917
212	0xbd7550c3	-0.059891474
213	0x3d825507	0.06363874
214	0xbe2c57cc	-0.16830367
215	0xbe04bc69	-0.12962498
216	0x3dafa862	0.08577038
217	0xbbea1e88	-0.007144753
218	0x3dd758b4	0.10514966
219	0xbdbf2932	-0.09334029
220	0xbd805a42	-0.06267215
221	0xbd5fe6a9	-0.054663334
222	0x3aa7eca2	0.0012811611
223	0xbde1763b	-0.11008879
224	0x3db1e541	0.08686305
225	0x3e15c84b	0.14627187
226	0x3daa9d6b	0.08330806
227	0x3b3146d2	0.002705027
228	0xbdec1a31	-0.11528433
229	0x3cf2bd6d	0.02963134
230	0x3d669be5	0.056301016
231	0xbe23daf7	-0.16001497
232	0xbdbc68c9	-0.09199674
233	0xbddb6742	-0.10713054
234	0x3e1049e4	0.14090687
235	0x3cfcbb00	0.030850887
236	0x3e204d7e	0.15654561
237	0xbe0ccac5	-0.13749225
238	0xbc4fca3a	-0.012682492
239	0xbdc1be0d	-0.094600774
240	0x3e3b8296	0.18311533
241	0x3c8ed60b	0.017436048
242	0x3dae3336	0.085058615
243	0x3e087a49	0.13327898
244	0xbdc53f28	-0.09631187
245	0x3d999bac	0.07500395
246	0x3d7d5f22	0.061858304
247	0x3def6f76	0.11691181
248	0xbd82d1ab	-0.06387647
249	0x3e0ef619	0.13961066
250	0xbd0ef738	-0.034903735
251	0x3e23d3bb	0.15998738
252	0xbce182de	-0.027528223
253	0x3e01c6e0	0.12673521
254	0xbe4006e5	-0.1875263
255	0xbd75610a	-0.059906997

conv.0.bias f4 [32]
0	0x3d72080b	0.0590897
1	0xbe345f04	-0.1761437
2	0x3d6a412e	0.057191066
3	0x3d60633a	0.05478213
4	0xbd55a404	-0.05215837
5	0x3d0c5bea	0.034267344
6	0xbc284545	-0.010270421
7	0x3e4139ff	0.1886978
8	0x3e457848	0.19284165
9	0x3e0a71e3	0.13520007
10	0xbd2e8cdf	-0.042614814
11	0xbdcac505	-0.0990086
12	0xbc9777c7	-0.018489731
13	0x3dbaa8d2	0.09114231
14	0xbe314d5c	-0.17314667
15	0x3d213af4	0.039362863
16	0xbc989113	-0.018623864
17	0x3dc38a34	0.095478445
18	0x3da3e472	0.08002557
19	0x3e5425f9	0.2071761
20	0x3c600bb0	0.0136746615
21	0xbda9ae2c	-0.08285174
22	0xbc856ef7	-0.016288264
23	0xbd27d86d	-0.040977884
24	0x3daa2222	0.083072916
25	0xbcbedc3c	-0.023298375
26	0x3d7fa773	0.06241555
27	0xbd8a5418	-0.06754321
28	0x3e31eafd	0.17374797
29	0xbe142b1a	-0.14469567
30	0xbe0f4d6e	-0.13994381
31	0xbda291ac	-0.07937941

conv.3.weight f4 [64, 32, 3, 3]
0	0x3c1fe34b	0.009758781
1	0x3d08f694	0.03343828
2	0xbba305a5	-0.004975038
3	0x3d1f739b	0.03892861
4	0x3c68a83f	0.014200269
5	0xbbc42e58	-0.00598697
6	0x3d341da6	0.043973587
7	0xbd740fb3	-0.059585284
8	0xbcd994a1	-0.02656013
9	0x3d347217	0.044054117
10	0xbb9f1f3b	-0.004856018
11	0xbcaa39f4	-0.020779587
12	0x3d0e72f4	0.034777597
13	0xbc0cf06e	-0.008602245
14	0xbc48679a	-0.012231732
15	0x3c50014f	0.0126956245
16	0x3d32a720	0.043616414
17	0xbc0c7f59	-0.008575284
18	0x3d71a0a5	0.058991093
19	0xbc55b76e	-0.013044221
20	0xbcad43f3	-0.021150565
21	0x3d0a205c	0.033722267
22	0xbd814976	-0.0631284
23	0x3cd60a30	0.026127905
24	0xbd2b0ef7	-0.04176232
25	0x3d27f42c	0.041004345
26	0xbc691ee2	-0.014228554
27	0xbd7b4a99	-0.06135044
28	0xbce450b7	-0.02787052
29	0x3cd82cb4	0.026388504
30	0x3cbe4409	0.023225801
31	0x3be967fd	0.007122992
32	0xbbe6bd97	-0.007041644
33	0x3d34a6ef	0.044104513
34	0x3ab12d59	0.0013517543
35	0xbd3ef424	-0.04661955
36	0xbb470dd5	-0.0030373235
37	0xbcdb5a23	-0.026776379
38	0x3c6f2fcc	0.014598798
39	0xbd5abbd2	-0.053401776
40	0x3c4c657d	0.012475369
41	0x3d03ac4a	0.03214673
42	0xbcc8e3a7	-0.024522616
43	0xbcc49442	-0.023996476
44	0xbc9f0b60	-0.019414604
45	0xbd859e04	-0.0652428
46	0xbc573c58	-0.013136946
47	0x3d12452b	0.035710495
48	0xbc71c1eb	-0.014755706
49	0x3c5c57a4	0.0134486295
50	0x3d0fe9cd	0.03513508
51	0x3b3291f8	0.0027247649
52	0x3c630c15	0.013857861
53	0xbcf81427	-0.030283047
54	0xbcbccffa	-0.02304839
55	0xbd7bd18b	-0.061479133
56	0xbcf1b012	-0.029502902
57	0xbd814270	-0.063115
58	0xbd3caa8c	-0.046061084
59	0xbd8969c6	-0.06709628
60	0xbd1f974f	-0.03896266
61	0x3d0ba602	0.034093864
62	0xbd6a316e	-0.057176046
63	0x3cf8159d	0.030283744
64	0xbc2584b6	-0.010102442
65	0x3d01b007	0.031662013
66	0xbd5735a6	-0.052541398
67	0xbd05d038	-0.032669276
68	0xbd2fa407	-0.042881038
69	0xbbdc8079	-0.0067291823
70	0x3bd86daf	0.006604872
71	0x3c30c733	0.01078968
72	0xbd1e7680	-0.03868723
73	0x3c9e5ec6	0.0193323
74	0x3c81d028	0.015846327
75	0x3c93873d	0.018008823
76	0x3c59079d	0.013246444
77	0xbd84edc8	-0.06490666
78	0x39ebf574	0.0004500557
79	0xbd1dff0e	-0.038573317
80	0x3cd9af82	0.026572946
81	0x3c59ca11	0.013292805
82	0x3d251557	0.040303554
83	0x3bcb8df3	0.00621199
84	0x3caefe52	0.021361504
85	0xbd0506e7	-0.032477286
86	0xbd4fe2d7	-0.05075344
87	0xbd221bb5	-0.039577205
88	0x3d3e1da2	0.04641498
89	0x3903bb0e	0.00012562817
90	0x3b93cc13	0.0045104115
91	0xbcd27173	-0.025688862
92	0x3cd4a247	0.025956286
93	0xbd57b31a	-0.05266104
94	0xbd4ed7b8	-0.050498694
95	0xbcb84130	-0.022492021
96	0x3cfad66f	0.030619828
97	0xbb7d4064	-0.0038643116
98	0x3c915d59	0.017744707
99	0xbd04edaa	-0.032453217
100	0xbd822047	-0.06353813
101	0xbb91f30c	-0.0044540223
102	0x3b6cb9f3	0.0036121577
103	0xbd01a366	-0.03164997
104	0xbbd8f289	-0.0066207093
105	0xbc1ec426	-0.00969032
106	0x3c82e255	0.015977064
107	0xbc734028	-0.014846839
108	0x3d36ebb9	0.044658396
109	0xbc5bc282	-0.0134130735
110	0xbc7e7289	-0.015530237
111	0x3ccd1082	0.025032286
112	0xbd26b036	-0.04069539
113	0x3d2cf992	0.042230196
114	0xbd7041b8	-0.058656424
115	0xbd64cc96	-0.05585917
116	0x3d03de87	0.03219464
117	0x3cf7d06b	0.030250749
118	0x3c311d77	0.010810248
119	0xbd780167	-0.060548212
120	0xbbb33586	-0.005469027
121	0xbd353093	-0.044235777
122	0xbb53ba6e	-0.0032307166
123	0x3cfa96a0	0.030589402
124	0xbd446150	-0.047944367
125	0xbd33a5b7	-0.04385921
126	0xbd5ee818	-0.05442056
127	0xbd32dc6b	-0.04366724
128	0x3d7b20c1	0.061310533
129	0x3c62d24e	0.013844086
130	0x3d2067e4	0.039161578
131	0xbc94a0b9	-0.018143045
132	0xbb615ee6	-0.003438884
133	0x3d3e8178	0.04651019
134	0x3d3781ae	0.044801407
135	0x3c157408	0.009121902
136	0xbd8204e6	-0.063485906
137	0x3cfb9992	0.030712876
138	0x3c048ad4	0.00808974
139	0x3b3916f7	0.0028242448
140	0x3b889df1	0.0041692187
141	0x3d2cd605	0.042196292
142	0xbc5b9bc5	-0.013403838
143	0xbd252763	-0.040320765
144	0x3c5dcf48	0.013538189
145	0xbd18c3c2	-0.037296064
146	0xbd587e74	-0.05285497
147	0x3b7ec450	0.0038874336
148	0xbd770b20	-0.060313344
149	0x3d4a4c81	0.049389366
150	0x3cdfa09a	0.02729826
151	0xbcf33a9b	-0.029691031
152	0x3d074070	0.033020437
153	0x3d413926	0.04717364
154	0x3c2ab51e	0.010419158
155	0xbd530412	-0.051517554
156	0xbca8a6e5	-0.020587394
157	0xbd0e4fbd	-0.034744013
158	0xbb004f96	-0.0019578687
159	0x3d3daa01	0.046304706
160	0x3c845419	0.016153382
161	0x3c1599c9	0.0091309035
162	0xbd07a2e8	-0.033114344
163	0xbbadecca	-0.0053077685
164	0x3d5e2a1b	0.054239374
165	0xbd286780	-0.04111433
166	0xba81a336	-0.000989056
167	0xbc58c9a3	-0.013231668
168	0x3d447308	0.047961265
169	0x3cf3441c	0.029695563
170	0x3d12dcfb	0.035855275
171	0xbcfcd171	-0.030861588
172	0xba83b0aa	-0.0010047157
173	0xbd35ad8b	-0.044354957
174	0xbcac2e25	-0.021018097
175	0x3d02c2f7	0.031924214
176	0xbd2fdad8	-0.042933315
177	0x3b2bdadf	0.0026222987
178	0xbba9615d	-0.0051690773
179	0x3c5f5edf	0.013633459
180	0xbd6c8c8a	-0.057751216
181	0x3cadda14	0.021222152
182	0xbd68a1eb	-0.056795042
183	0x3c7f4103	0.015579465
184	0xbb84570c	-0.004038697
185	0xbc70fe91	-0.014709131
186	0xbce6c6ca	-0.028170962
187	0xbd8b5a6d	-0.06804357
188	0xbbd1936d	-0.0063957484
189	0xbc6c8891	-0.014436857
190	0xbc1c7c62	-0.00955114
191	0xbd2e0aaf	-0.042490657
192	0x3ce449b7	0.027867181
193	0xbd5045d2	-0.050847836
194	0xbd559bfc	-0.05215071
195	0x3d0bd3e6	0.03413763
196	0xbaaf8230	-0.0013390239
197	0x3c905795	0.017619887
198	0xbbf8ed72	-0.007596665
199	0xbc84d518	-0.016214892
200	0x3b0da188	0.0021611173
201	0x3d0ae627	0.033910897
202	0xbd118583	-0.035527717
203	0xbd6a933c	-0.05726932
204	0xbd0cd7e5	-0.03438558
205	0xbc845efc	-0.016158573
206	0xbd314e70	-0.043287694
207	0x3af98059	0.0019035443
208	0xbd483534	-0.048878863
209	0x3d19baf1	0.037531797
210	0xbca54753	-0.020175612
211	0xbd3c9a11	-0.046045367
212	0x3bed7676	0.0072467877
213	0xba845f50	-0.0010099206
214	0x3d1a3b27	0.03765407
215	0x3d648883	0.05579425
216	0x39f35991	0.00046415304
217	0xbd4752c4	-0.048662916
218	0xbd8fbc5b	-0.07018348
219	0x3ceb6eb6	0.028739315
220	0xbcf15e5e	-0.029463943
221	0x3d10486e	0.035225324
222	0xbcb47ce3	-0.022032207
223	0xbd4a8712	-0.04944522
224	0xbce0c165	-0.027435968
225	0x3bfaac9c	0.007649971
226	0xbd2237e7	-0.039604094
227	0x3c6bd797	0.014394662
228	0xbcd8b6bf	-0.026454328
229	0x3cecb0eb	0.028892955
230	0x3ceb9ab9	0.028760301
231	0x3d42a824	0.047523633
232	0x3ae9686e	0.0017807612
233	0xbd6b6200	-0.057466507
234	0x3cdea306	0.027177345
235	0x3c4000ae	0.011718912
236	0x3c280ebf	0.010257422
237	0xbd41519c	-0.04719697
238	0x3d1dc937	0.03852197
239	0x3b35ed3b	0.0027759809
240	0xbd5b9a6b	-0.05361406
241	0xbd86eb44	-0.06587842
242	0xbcd6e9e3	-0.026234573
243	0xbc817823	-0.015804356
244	0xbd55e78b	-0.05222277
245	0x3b640c82	0.0034797494
246	0x3a43ffba	0.0007476766
247	0xbd630f55	-0.055434544
248	0x3c759327	0.014988697
249	0x3c2424fd	0.010018584
250	0xbc741e43	-0.014899793
251	0xbd538a2d	-0.051645447
252	0xbd1794e9	-0.037007246
253	0xbccd1024	-0.02503211
254	0xbcda3427	-0.026636196
255	0x3caaea50	0.020863682

conv.3.bias f4 [64]
0	0xbd056029	-0.03256241
1	0xbd43f818	-0.047844023
2	0xbca7355f	-0.020411192
3	0x3bc46699	0.005993676
4	0xbabaf0e8	-0.001426247
5	0x3cee76c3	0.029109364
6	0xbd469189	-0.048478637
7	0x3c343248	0.010998316
8	0xbc8144f6	-0.015779953
9	0xbd9b2db3	-0.07577076
10	0x3ce40b3f	0.027837394
11	0x3bb738d4	0.0055914912
12	0xbb767d6f	-0.0037611385
13	0x3cb53349	0.022119181
14	0x3d06cf6e	0.032912664
15	0x3d39fe81	0.04540873
16	0x3c0b9626	0.008519685
17	0x3cc38def	0.02387139
18	0x3cfda3a8	0.030961826
19	0xbccf8c54	-0.025335468
20	0x3c8a215d	0.016861612
21	0xbd26aa92	-0.040690012
22	0xbcaeec98	-0.021353051
23	0x3d35ae2e	0.044355564
24	0x3bcf995a	0.0063354196
25	0xbcb2c3bf	-0.021821855
26	0x3d935a68	0.07194978
27	0x3b7083b9	0.0036699607
28	0xbce1b3db	-0.027551582
29	0xbd2f595d	-0.042809833
30	0xbbff9081	-0.0077992086
31	0xbd3ab77c	-0.04558514
32	0xbc1a9d94	-0.009436984
33	0x3c8ce291	0.017197879
34	0xbb8d57f8	-0.004313465
35	0xbd24cca5	-0.040234227
36	0xbd648b1a	-0.05579672
37	0xbca6b76f	-0.02035114
38	0xbd4ea4f8	-0.050450295
39	0xbd914969	-0.0709408
40	0xb9402aea	-0.00018326534
41	0x3b1da691	0.002405558
42	0x3aa9fe33	0.0012969434
43	0xbcf9a0cc	-0.030472182
44	0xbd92aea1	-0.07162214
45	0xbc08a8fb	-0.008341069
46	0x3ce167ab	0.027515253
47	0xbd657422	-0.056018956
48	0xbc42acbb	-0.011882002
49	0xbc5dd17c	-0.0135387145
50	0xbd8a3f50	-0.06750357
51	0x3d8a31af	0.06747758
52	0xbca14364	-0.019685455
53	0x3d7bb600	0.061452866
54	0x3c35f921	0.01110676
55	0xbd8f7261	-0.07004238
56	0xbd355552	-0.04427082
57	0xbd5c3f82	-0.053771503
58	0x3cd70be6	0.02625079
59	0xbd7496af	-0.059714016
60	0xbd65f542	-0.0561421
61	0xbd648457	-0.05579027
62	0xbc3edfc5	-0.0116500305
63	0x3d6dd005	0.05805971

conv.6.weight f4 [128, 64, 3, 3]
0	0xbd1823a4	-0.037143365
1	0xbd2f43a9	-0.042789135
2	0x3c1c1901	0.009527446
3	0xbb804839	-0.0039148596
4	0x3d0f1e96	0.03494128
5	0x3d0bb443	0.034107458
6	0xbd063db2	-0.03277368
7	0x3cd29c1c	0.025709204
8	0xbcb031fd	-0.021508211
9	0xbb46eb28	-0.0030352566
10	0xbcfcdf20	-0.030868113
11	0x3cbfcd01	0.023413183
12	0xbb913943	-0.004431875
13	0x3ccf22ea	0.025285203
14	0x3c8d3420	0.01723677
15	0x3c3a49bf	0.0113701215
16	0xbb5407bf	-0.003235325
17	0xbd264fe5	-0.040603537
18	0x3cad2f97	0.021140857
19	0x3b92bc7d	0.004478036
20	0xbcf6768b	-0.030085823
21	0xbd037c23	-0.032100808
22	0xbbc88dd9	-0.006120425
23	0xbd0034a5	-0.031300206
24	0xbc38fdd7	-0.011290989
25	0x3ccaa4e4	0.02473683
26	0x3c2192e9	0.009861686
27	0x3b4903e1	0.0030672478
28	0xbd2c9cbb	-0.042141657
29	0x3c78fa81	0.015196444
30	0x3d199e5d	0.037504543
31	0xbbbf1b29	-0.005832095
32	0xbd1770ae	-0.036972694
33	0x3cd1fcfa	0.025633324
34	0x3c66295b	0.014047946
35	0x399652d7	0.0002867195
36	0x3beccff6	0.0072269393
37	0xbb340a16	-0.0027471832
38	0x3ccf1623	0.02527911
39	0x3d1b58ed	0.037926603
40	0x3c3b4600	0.0114302635
41	0xbc0be77f	-0.00853908
42	0x3c37a491	0.011208669
43	0x3c805f89	0.015670555
44	0x3b83e4ae	0.0040250635
45	0xbbb5c1d1	-0.0055467864
46	0xbd44781e	-0.047966115
47	0xba836e7d	-0.0010027435
48	0xbbbbd1ab	-0.0057317815
49	0xbc99fc62	-0.018797103
50	0x3caada95	0.020856181
51	0xbce2532c	-0.02762755
52	0xbc9154d4	-0.017740645
53	0xbaf623fa	-0.0018779032
54	0xbd172e7f	-0.036909577
55	0x3a0adced	0.0005297203
56	0xbc998353	-0.018739378
57	0xbccb2e3d	-0.024802322
58	0x3ce2e460	0.027696788
59	0x3d30731e	0.043078534
60	0xbceed1fb	-0.02915286
61	0xbcfd2ac5	-0.030904183
62	0x3ced44eb	0.028963527
63	0xbcdb99d0	-0.026806742
64	0xbb98910c	-0.004655963
65	0xbbb1e78d	-0.0054292143
66	0xbc5bea4e	-0.013422562
67	0x3ccd61ee	0.02507111
68	0x3c883c45	0.016630301
69	0x3d0fe20f	0.035127696
70	0x3cfdb577	0.030970318
71	0x3ce740e5	0.028229186
72	0xbcd0ff8c	-0.02551248
73	0x3c4caa44	0.012491766
74	0xbd090173	-0.033448648
75	0xbd5a8e66	-0.053358458
76	0x3bd45d45	0.006480845
77	0xbc4d4f09	-0.0125310505
78	0xbc917c4c	-0.017759465
79	0xbc364abe	-0.011126218
80	0xbd0c28dd	-0.034218658
81	0xbd400a56	-0.046884857
82	0xbd058921	-0.03260148
83	0x3cc0cf5b	0.023536375
84	0xbc9979c4	-0.01873482
85	0xbd4a99a6	-0.049462937
86	0x3cda84a2	0.026674572
87	0x3b93639a	0.0044979574
88	0xbd0c25fa	-0.034215905
89	0xbd667365	-0.056262393
90	0xbce542f6	-0.027986031
91	0xbb96f826	-0.0046072183
92	0x3d2db9ae	0.042413406
93	0xbca451a9	-0.02005847
94	0x3c3138e8	0.01081679
95	0x3ce75dbc	0.028242938
96	0x3bc97581	0.0061480408
97	0x3c626791	0.0138186375
98	0x3d26aeab	0.04069392
99	0xbcec1204	-0.028817184
100	0xbd173270	-0.036913335
101	0x3bc78451	0.0060887714
102	0xbd13b44f	-0.036060628
103	0xbd1c929f	-0.038225766
104	0x3c259f70	0.010108814
105	0x3c842ac1	0.016133668
106	0x3c17d55d	0.009267178
107	0xbd03ad6c	-0.03214781
108	0x3c15418e	0.009109868
109	0x3d137c67	0.03600731
110	0x3d27732c	0.04088132
111	0x3c45eb00	0.012079954
112	0x3d30aa94	0.043131426
113	0x3c9fae34	0.019492246
114	0xbcba48e8	-0.022739843
115	0xbc988824	-0.018619604
116	0x3d198720	0.03748238
117	0xba8acf88	-0.0010590414
118	0xbd3ace99	-0.045607183
119	0x3bffc355	0.007805268
120	0xbb0fbd85	-0.002193303
121	0x3c8e5967	0.017376615
122	0x3b0696c0	0.0020536631
123	0xbd62391c	-0.055230245
124	0xbd3dd99f	-0.046350118
125	0x3c0b62df	0.008507459
126	0xbcf8c762	-0.03036851
127	0x3c37b60b	0.011212836
128	0xbbba9296	-0.005693744
129	0x3cbb8919	0.022892522
130	0xbba320c2	-0.0049782703
131	0x3ca91fbc	0.020645015
132	0x3bc4a60c	0.0060012396
133	0xbc92df92	-0.017928872
134	0x3cb925fd	0.022601122
135	0xbd07a9e9	-0.033121023
136	0x3bb65ffd	0.005565642
137	0x3b5be75d	0.0033554651
138	0xbc8f4fe6	-0.017494153
139	0xbbbb7366	-0.0057205437
140	0xbd1b0f4c	-0.037856385
141	0xba2c0694	-0.00065622595
142	0xbd17a090	-0.03701836
143	0x3c028022	0.00796512
144	0xbb9e3c38	-0.004828956
145	0x3bc19d71	0.005908661
146	0xba98d098	-0.0011658845
147	0xbcff07ff	-0.031131743
148	0x3c3b040c	0.011414539
149	0xbd387d40	-0.045041323
150	0xbd0da1e2	-0.03457821
151	0xbd354a31	-0.044260208
152	0xbcdb5b01	-0.026776792
153	0x3cdf5449	0.02726187
154	0xbcb4797b	-0.022030583
155	0xbcf8546f	-0.030313699
156	0x3d09427a	0.033510663
157	0xba10bb75	-0.00055210973
158	0x3c3836b4	0.011243511
159	0xbc15ea09	-0.009150037
160	0x3c37942a	0.011204759
161	0xbd47e5a8	-0.048803
162	0x3cbc5db6	0.022993904
163	0x3d09c86a	0.033638395
164	0x3d06071e	0.03272163
165	0x3b31ab19	0.0027110039
166	0xbca4a351	-0.020097407
167	0xbcf2ace4	-0.029623456
168	0x3d03418f	0.032044943
169	0xbcedf379	-0.02904676
170	0x3cdb6b21	0.026784481
171	0xbd2b22b4	-0.041781142
172	0xbd2165f3	-0.039403867
173	0xbd0243ff	-0.031803127
174	0xbd40ff15	-0.047118265
175	0x3b39468e	0.0028270814
176	0xbd256e0e	-0.04038816
177	0x3c115144	0.008869473
178	0x3cf0dae5	0.029401252
179	0x3a813415	0.0009857441
180	0x3d2b4755	0.041816074
181	0xbb7bf93a	-0.003844811
182	0x3d34295e	0.043984763
183	0xbc977622	-0.018488947
184	0x3cbf9978	0.02338861
185	0xbc33a6de	-0.010965077
186	0xbca9c9b2	-0.020726059
187	0x3c249474	0.01004516
188	0xbb254c18	-0.0025222357
189	0xbc5229b6	-0.0128273275
190	0x3c803f05	0.01565505
191	0xbd05d926	-0.032677792
192	0xbccae015	-0.024765054
193	0xbb66b054	-0.0035200315
194	0xbd19db43	-0.03756262
195	0xbd126ea6	-0.035750054
196	0x3ca6fa9a	0.020383168
197	0xbd357f04	-0.044310585
198	0xbd0fb3bf	-0.03508353
199	0x3b7d26db	0.0038627896
200	0xbce836e8	-0.028346494
201	0xbcd73e9e	-0.026274975
202	0x3c89d9c3	0.01682747
203	0x3d08a03f	0.033355948
204	0xbc93b209	-0.01802923
205	0x3c135e34	0.008994628
206	0x3c1075d6	0.008817157
207	0xbd5a420f	-0.053285655
208	0xbd54c532	-0.051945873
209	0xbd646807	-0.05576327
210	0xbc9ac17d	-0.01889109
211	0xbc0f8797	-0.0087603545
212	0xbd2905a5	-0.04126515
213	0x3c39e02d	0.011344952
214	0xbcbbb5c3	-0.02291382
215	0xbce2a89d	-0.027668292
216	0x3c97d4ca	0.018534083
217	0x3ce8ec94	0.028433122
218	0x3c7c4508	0.015397318
219	0xbc45a3a8	-0.0120629445
220	0xbcdeb745	-0.027187
221	0xba140055	-0.00056458014
222	0xbcbf89b3	-0.02338109
223	0x3ce5046e	0.027956214
224	0x3c3eff3a	0.01165753
225	0xbcd5a4f6	-0.026079636
226	0xbcf36b32	-0.0297142
227	0x3d2eaf25	0.0426475
228	0x3bdfb7a0	0.0068273097
229	0x3d087532	0.03331489
230	0x3c85fc6c	0.016355716
231	0x3c848b78	0.016179785
232	0x3d122901	0.035683636
233	0xb9d96d1a	-0.00041470752
234	0xbd0a2ea7	-0.033735897
235	0xbb85d126	-0.0040837703
236	0xbc01d838	-0.007925086
237	0xbcad889f	-0.02118331
238	0xbd152689	-0.036413703
239	0xbc238d7b	-0.009982462
240	0xbd724462	-0.059147246
241	0xbd59af25	-0.053145546
242	0xbcfc6e49	-0.030814307
243	0x3c908eac	0.017646156
244	0xbc9bcbc9	-0.01901807
245	0x3c85c052	0.016327057
246	0xbc669e70	-0.01407586
247	0x3d086c25	0.03330626
248	0x3ba4b492	0.0050264085
249	0xbc5d7c81	-0.013518454
250	0x3b07a5b4	0.0020698132
251	0xbd17027e	-0.03686761
252	0xbcd42e38	-0.025900945
253	0x3bfd941c	0.0077386033
254	0x3cac354b	0.021021506
255	0xbce8e36b	-0.028428754

conv.6.bias f4 [128]
0	0x3c9bfa3a	0.019040216
1	0xbbe59db3	-0.0070073246
2	0x3d284bc8	0.041087896
3	0x3a41e63b	0.0007396673
4	0x3c230f0e	0.00995232
5	0xbd2bbe19	-0.041929338
6	0xbd56f794	-0.052482203
7	0xbd149170	-0.036271513
8	0xbd1a9f6c	-0.037749693
9	0xbd3f9b76	-0.04677912
10	0xbcea89f1	-0.028630229
11	0xbd0c8d85	-0.03431465
12	0x3d00213d	0.0312817
13	0x3cce1801	0.02515793
14	0xbc944a20	-0.018101752
15	0x3c4b9f2e	0.012428088
16	0x3c4ad8cd	0.012380791
17	0x3c15c28f	0.009140625
18	0x3c345518	0.011006616
19	0x3d70f5ad	0.058828045
20	0x3ca7c3d3	0.020479118
21	0xbd2833af	-0.041064914
22	0x3d346798	0.044044107
23	0xbccf3c12	-0.025297198
24	0x3d2bccf5	0.04194351
25	0x3cda437c	0.026643507
26	0xbc390215	-0.011292
27	0xbcda03fa	-0.026613224
28	0xbd546506	-0.051854156
29	0x3c9a81fe	0.018860813
30	0x3c986aca	0.018605608
31	0xbc52cca6	-0.012866175
32	0xbd234807	-0.039863613
33	0xbd45458f	-0.04816204
34	0x3c7c2840	0.015390456
35	0xbcc042a9	-0.023469286
36	0x3c92a433	0.017900562
37	0x3c909237	0.017647846
38	0xbc7bf266	-0.0153776165
39	0x3c44f944	0.01202232
40	0xbd2ec148	-0.042664796
41	0x3d4137a7	0.047172215
42	0xbaa3856a	-0.0012475674
43	0xbd2c9ab4	-0.042139724
44	0xbd1ef617	-0.03880891
45	0xbd0078e4	-0.03136529
46	0xbcd6936b	-0.026193341
47	0x3d1a18cf	0.037621316
48	0xbd44c245	-0.048036832
49	0xbd257560	-0.04039514
50	0xbc754280	-0.014969468
51	0xbd0d0e7d	-0.034437645
52	0x3c37bf3b	0.0112150265
53	0x3c8ec878	0.017429575
54	0xbd30424c	-0.043031976
55	0xbc8bce37	-0.017066104
56	0xbc44c90e	-0.012010826
57	0xbd0a9d0c	-0.033841178
58	0xbce51d0d	-0.027967954
59	0xbd0dadae	-0.034589462
60	0x3bb378ae	0.0054770326
61	0xbd15b51a	-0.036549665
62	0x3b398cf3	0.0028312772
63	0xbb9d495c	-0.004800005
64	0xbd0a8dda	-0.033826686
65	0x3cd302dd	0.025758201
66	0xbb98fdb4	-0.0046689156
67	0xbc9cdc07	-0.019147886
68	0xbcd44136	-0.025910001
69	0xbcaedcf1	-0.021345587
70	0xbbdc39b2	-0.006720745
71	0x3c06a710	0.008218542
72	0x3cf96244	0.030442365
73	0xbcbd6cca	-0.023123164
74	0xbc8766d1	-0.016528519
75	0xbcf50fb3	-0.029914713
76	0x3ceb2a41	0.028706672
77	0x3d8b560d	0.06803522
78	0xbcfa8024	-0.03057868
79	0x3d364f1a	0.04450903
80	0x3bfaa345	0.007648858
81	0x3ca5b01c	0.020225577
82	0xba7ef57e	-0.0009725912
83	0x3cb2ec35	0.021841148
84	0xbd223ae4	-0.039606944
85	0x3b98a901	0.0046588187
86	0xbc5a2ee7	-0.013316846
87	0x3cc5bf56	0.024139088
88	0x3c40a23e	0.011757432
89	0x3da0b709	0.07847411
90	0x3d4f7f82	0.05065871
91	0xbd2e0697	-0.042486753
92	0x3d597324	0.053088322
93	0xbb87271d	-0.0041245357
94	0xbcbd9ddc	-0.023146562
95	0xbd3f9382	-0.046771534
96	0x3c5d0291	0.013489381
97	0x3c5544e7	0.013016916
98	0xbabe2f27	-0.0014509902
99	0xbcf97280	-0.030450106
100	0xbb76977d	-0.0037626915
101	0x3d291fee	0.041290216
102	0x3beef05a	0.0072918357
103	0xba54a625	-0.00081119157
104	0xbd09a923	-0.033608567
105	0xbd3d73c6	-0.04625299
106	0xbcba7b7e	-0.022763964
107	0x3c6b532a	0.01436309
108	0x3cb5927c	0.022164576
109	0x3d275977	0.040856805
110	0x3cb4ce11	0.022070916
111	0xbc9f5f65	-0.019454667
112	0xbd003550	-0.031300843
113	0x3aefd7c6	0.0018298558
114	0xbceeba50	-0.029141575
115	0x3c4cc42e	0.012497945
116	0x3d10c759	0.035346363
117	0xbd2b0076	-0.041748486
118	0xbc6358ea	-0.013876179
119	0x3bcf3ccd	0.0063243867
120	0x3be21903	0.0068999543
121	0x3d41d872	0.04732556
122	0x3c23147f	0.009953617
123	0xbccf293f	-0.025288222
124	0xbc7104e6	-0.014710641
125	0xbcdd0767	-0.026981069
126	0x3c8d49f4	0.017247178
127	0xbcc14bdf	-0.023595748

fc.weight f4 [128, 128]
0	0x3c96a4e2	0.01838917
1	0xbcec39ea	-0.02883621
2	0xbd84fa50	-0.06493056
3	0x3d229e1d	0.03970157
4	0xbd4a69b2	-0.049417205
5	0xbd5bb93e	-0.053643458
6	0x3dc71948	0.09721619
7	0x3da2964a	0.079388216
8	0xbd05b7f9	-0.032646153
9	0x3d391a33	0.045191
10	0xbd564c46	-0.052318834
11	0x3b995c20	0.0046801716
12	0xbd574e88	-0.052565128
13	0x3d32dfe3	0.043670546
14	0xbd7e7b65	-0.062129397
15	0x3d919161	0.07107807
16	0x3daf8e4f	0.08572065
17	0xbd808e11	-0.06277097
18	0xbd4c0f91	-0.049819533
19	0xbd2d6569	-0.04233304
20	0xbb862875	-0.0040941783
21	0x3d02755e	0.03185021
22	0xbd982d26	-0.074304864
23	0x3dba4f12	0.09097113
24	0xbd904a0a	-0.07045372
25	0xbd1c947a	-0.038227536
26	0xbd95414e	-0.072878465
27	0x3d885615	0.06657044
28	0x3d8304ed	0.06397424
29	0x3d7e71c8	0.06212023
30	0xbd246a7e	-0.04014062
31	0x3d201e11	0.039091174
32	0xbc9a79fa	-0.018856991
33	0x3d9655b0	0.07340562
34	0x3d8c37cc	0.0684658
35	0xbd1ac973	-0.037789773
36	0x3da02156	0.07818858
37	0x3cbf06e8	0.023318723
38	0x3dac4dec	0.084133
39	0x3da48a43	0.08034184
40	0xba82921e	-0.0009961759
41	0x3d8e42c8	0.06946331
42	0x3d28a324	0.041171208
43	0xbd21d206	-0.039506935
44	0x3d76e36b	0.060275476
45	0x3d126c1f	0.035747644
46	0xbc36e8fe	-0.011163948
47	0xbd67ff87	-0.056640174
48	0x3cc2fa52	0.023801003
49	0x3c4c2660	0.012460321
50	0xbcecba20	-0.028897345
51	0x3d0239c9	0.03179339
52	0x3c5f0427	0.01361183
53	0x3da63a41	0.0811658
54	0xbcf1d8f8	-0.029522404
55	0xbd47eca2	-0.048809655
56	0xbc5da61b	-0.013528372
57	0x3cf409a9	0.029789763
58	0x3d711a47	0.05886295
59	0xbc509f71	-0.012733326
60	0x3d65a565	0.056065936
61	0x3d82c81a	0.063858226
62	0xbd44b0ac	-0.04802005
63	0xbb6fd3b5	-0.0036594693
64	0xbc49b556	-0.0123113
65	0xbd17e989	-0.03708795
66	0x3c19ed8c	0.0093950145
67	0xbc179ba7	-0.009253419
68	0xbd1b1d1e	-0.037869565
69	0xbca4797a	-0.020077456
70	0x3d401e45	0.046903867
71	0x3daa64ed	0.08320031
72	0xbd603865	-0.054741282
73	0x3d5c06f0	0.053717554
74	0x3cd6206c	0.026138507
75	0xbbab8aef	-0.005235068
76	0x3d3a0453	0.04541428
77	0xbce4fecd	-0.02795353
78	0x3ce53a43	0.027981883
79	0x3b08db40	0.0020882636
80	0xbbe5f0a1	-0.0070172106
81	0x3d178d87	0.037000205
82	0xbd800bd4	-0.06252256
83	0x3d5b354d	0.05351763
84	0xbd24a000	-0.04019165
85	0x3d51a745	0.05118491
86	0x3cbd6f6c	0.02312442
87	0x3d1bff28	0.038085133
88	0x3d835833	0.06413307
89	0x3c2208ff	0.00988984
90	0x3d84ef5c	0.06490967
91	0x3c24da33	0.010061788
92	0xbdb75ae2	-0.089528814
93	0x3d45f097	0.048325147
94	0xbd03ba03	-0.032159816
95	0xbd3800e7	-0.044922736
96	0xbd5c3ef2	-0.053770967
97	0x3d44988d	0.047997046
98	0x3d8a74b1	0.06760538
99	0xb8c91d42	-9.5898766e-05
100	0x3db6ac91	0.08919633
101	0xbd627560	-0.05528772
102	0xbd991a7c	-0.074757546
103	0x3d6fa056	0.058502518
104	0xbb777433	-0.003775847
105	0x3da624a0	0.081124544
106	0xbc659cc3	-0.014014426
107	0xbd869081	-0.06570531
108	0x3c6d4394	0.014481444
109	0xbd4c87cb	-0.04993419
110	0x3c7631c3	0.015026513
111	0xbd516e73	-0.051130723
112	0x3d1d315e	0.03837716
113	0x3ccc875d	0.02496689
114	0xbda924c9	-0.08258969
115	0x3d246127	0.040131714
116	0x3c9c01b5	0.019043783
117	0xbb739bd6	-0.0037171743
118	0xbd073614	-0.033010557
119	0x3d39eac6	0.045389913
120	0x3d55a803	0.05216218
121	0x3b6875bc	0.0035470566
122	0xbcaf6b85	-0.021413574
123	0x3bef1669	0.0072963727
124	0x3d0e2481	0.03470278
125	0xbc9ad97d	-0.018902535
126	0x3cfad8c6	0.030620944
127	0x3d39f1ec	0.04539673
128	0x3b4ea4d0	0.0031531341
129	0xbd69925d	-0.05702435
130	0x3c06a3f4	0.0082178
131	0xbbb890bb	-0.0056324876
132	0xbb20fb33	-0.002456379
133	0x3cb42334	0.021989442
134	0x3dc15730	0.09440458
135	0x3caad3b0	0.020852894
136	0x3cde2836	0.027118783
137	0x3d18bc79	0.037289117
138	0xbc8e39c5	-0.017361531
139	0x3d53d5c6	0.051717542
140	0x3cd7db79	0.02634977
141	0x3bf02684	0.00732881
142	0x3bfdcd2b	0.007745405
143	0x3c9d5d85	0.019209633
144	0xbc56ea38	-0.013117366
145	0x3ca944d8	0.02066271
146	0x3c8e0196	0.01733474
147	0xbcbdc38d	-0.023164535
148	0xbd3fccd9	-0.046826217
149	0xbcc7a1e8	-0.024369195
150	0x3c9874c8	0.018610373
151	0x3cd1b402	0.02559853
152	0xbdaac5f7	-0.0833854
153	0x3d4e1fa7	0.050323155
154	0x3dbab425	0.09116391
155	0x3d4cc4bc	0.049992308
156	0x3d8e4f00	0.06948662
157	0xbd71ff14	-0.059081152
158	0xbd7307e1	-0.059333686
159	0xbd69de59	-0.057096813
160	0x3dbba305	0.09161953
161	0x3d70a101	0.058747295
162	0x3b94f7fd	0.004546164
163	0x3b14abc4	0.0022685388
164	0x3da9e7d6	0.08296172
165	0xbdae0f71	-0.08499039
166	0x3d749f15	0.059722025
167	0x3da612d9	0.08109064
168	0x3c7044fa	0.014664883
169	0x3c353733	0.011060524
170	0x3c1dfb5f	0.009642451
171	0xb93af814	-0.00017830759
172	0x3ceb1492	0.028696332
173	0x3cdb665d	0.026782209
174	0x3d8f19bb	0.069873296
175	0x3d68e0a2	0.05685485
176	0xbc8861d2	-0.016648207
177	0x3dc6ab53	0.09700646
178	0x3d5e3681	0.054251198
179	0x3d797b99	0.060908888
180	0x3c5117ca	0.012762019
181	0xbc012af4	-0.007883776
182	0x3d53634c	0.05160837
183	0xbd2be1e5	-0.041963477
184	0xbd11f0d6	-0.03563007
185	0xbd752c6b	-0.059856813
186	0xbd3f58df	-0.046715613
187	0x3d250474	0.04028745
188	0x3d3a51c1	0.045488123
189	0x3c0b2b51	0.008494214
190	0xbd81ca67	-0.06337433
191	0x3daa3b33	0.083120726
192	0x3d5120da	0.05105672
193	0xbd69439e	-0.05694925
194	0x3d724f67	0.059157755
195	0xbc9c0d72	-0.01904938
196	0x3d781e81	0.060575966
197	0xbd3554b7	-0.044270243
198	0x3cd6c27a	0.02621578
199	0x3d4d1ae5	0.050074477
200	0xbce6b9d4	-0.028164782
201	0xbd602cea	-0.054730333
202	0xbc9ce8c8	-0.019153967
203	0x3d49f539	0.04930613
204	0x3cf512c2	0.029916171
205	0xbd757090	-0.0599218
206	0xbc799900	-0.015234232
207	0x3c0170f5	0.007900466
208	0xbd541258	-0.051775306
209	0xbd01f6a9	-0.031729374
210	0x3d06fbe3	0.03295506
211	0xbcb01831	-0.02149591
212	0x3d958587	0.07300859
213	0x3da27d56	0.07934062
214	0xbc84f363	-0.016229337
215	0xbd7b738e	-0.0613895
216	0xbc8d616a	-0.017258365
217	0x3d59a782	0.053138264
218	0x3d170e4c	0.03687887
219	0x3d369ad0	0.044581234
220	0x3c13640f	0.008996024
221	0x3b9759ce	0.00461886
222	0x3c6897af	0.01419632
223	0xbce3d1e6	-0.027810048
224	0x3d00934e	0.03139048
225	0xbd9cb96d	-0.07652555
226	0xbcf98b9b	-0.030462077
227	0xbd0d9e1d	-0.034574617
228	0xbca3e3f4	-0.020006157
229	0x3ce759bb	0.028241029
230	0x3c2fec06	0.010737425
231	0x3cf7716f	0.030205457
232	0x3d81c9e7	0.06337338
233	0x3cf7db6b	0.030255994
234	0xbda70bc0	-0.08156538
235	0xbd3be07d	-0.045868386
236	0x3c20f6ae	0.009824438
237	0x3ca825cc	0.020525835
238	0xbdb8c480	-0.090218544
239	0x3db7deec	0.08978066
240	0x3dc53cf8	0.096307695
241	0xbd4b3192	-0.04960782
242	0xbc3d184e	-0.011541439
243	0xbd6bbf4d	-0.057555486
244	0x3d064ba3	0.032786977
245	0xbc284d34	-0.010272313
246	0x3d8d7b06	0.069082305
247	0xbd89a7df	-0.06721472
248	0xbcf28823	-0.02960593
249	0xbd08682b	-0.033302467
250	0xbd1721ac	-0.036897346
251	0x3d48e2d4	0.049044445
252	0x3d4817a0	0.048850656
253	0x3d9980e1	0.07495285
254	0xbc087d0c	-0.008330595
255	0x3cd10900	0.025516987

fc.bias f4 [128]
0	0xbd913a0a	-0.07091148
1	0xbd2481b4	-0.040162757
2	0x3daac08a	0.08337505
3	0xbd915129	-0.07095558
4	0x3da9a726	0.08283834
5	0xbd8286d7	-0.06373375
6	0xbcd03cc5	-0.025419602
7	0xbcb9eb62	-0.022695247
8	0xbd81191e	-0.06303619
9	0x3da6ae47	0.081387095
10	0x3d9d3c9e	0.076775774
11	0x3bec8d0b	0.007218962
12	0x3b867484	0.004103245
13	0xbc60facd	-0.013731671
14	0xbd33afc6	-0.043868802
15	0x3ccb5136	0.024818998
16	0x3d6cdaff	0.05782604
17	0x3cf9b8d9	0.03048365
18	0x3c6a0c19	0.014285111
19	0x3b8cbf79	0.0042952863
20	0xbd64cea7	-0.05586114
21	0xbd19aa83	-0.03751613
22	0x3cdbca8a	0.026829977
23	0x3da73763	0.08164861
24	0x3d82cff9	0.06387324
25	0x3cc50753	0.024051344
26	0x3d8a767f	0.067608826
27	0x3d92447d	0.07141969
28	0x3d994637	0.074840955
29	0x390a9eec	0.00013219909
30	0x3ca58179	0.020203339
31	0x3da8db3e	0.08244942
32	0xbd9bc8db	-0.076066695
33	0xbcfaf251	-0.030633124
34	0xbc911952	-0.017712269
35	0xbdccd72c	-0.10001978
36	0x3d8cff9e	0.068846926
37	0xbd241532	-0.040059276
38	0x3d833bd8	0.06407899
39	0xbd09d328	-0.03364864
40	0xbd787780	-0.06066084
41	0x3dbe6a97	0.09297674
42	0xbda787fe	-0.08180235
43	0xbc815970	-0.015789717
44	0x3d87754f	0.06614172
45	0xbd9adfe1	-0.07562233
46	0xbdb1399a	-0.08653565
47	0xbc72221e	-0.014778642
48	0x3d9ef890	0.07762253
49	0xbd8abf7b	-0.06774803
50	0xbbe4b55d	-0.006979628
51	0x3cf0e48d	0.029405857
52	0xbd804836	-0.06263773
53	0xbb546e95	-0.0032414545
54	0x3cbacf35	0.022803882
55	0x3d8ed6b2	0.06974544
56	0xbdb7cb36	-0.08974306
57	0x3ccc9404	0.024972923
58	0x3d80be6e	0.062863216
59	0xbda727bf	-0.08161878
60	0x3cf7d530	0.030253023
61	0x3d20abbb	0.039226275
62	0x3cd8b2e0	0.026452482
63	0xbc978933	-0.018498039
64	0xbda83c9e	-0.08214687
65	0xbd5115e4	-0.051046267
66	0xbd3e6c5a	-0.04649005
67	0x3c3e41b4	0.0116123445
68	0x3d4532c9	0.048144136
69	0xbd419585	-0.047261734
70	0x3dbd2ae9	0.092367
71	0xbd57baf2	-0.05266852
72	0x3d183cb5	0.03716727
73	0xbcb7a635	-0.02241812
74	0xbd5501c3	-0.052003633
75	0x3c497d5d	0.012297955
76	0x3d0c2bed	0.03422158
77	0x3c6ab0eb	0.014324407
78	0x3dad02c8	0.08447796
79	0x3d16c86e	0.03681224
80	0xbd475978	-0.04866931
81	0xbd7115af	-0.05885857
82	0x3d27de07	0.040983226
83	0xbda6a973	-0.081377886
84	0xbd3e7119	-0.046494577
85	0x3daf3b4c	0.08556232
86	0x3d99f0aa	0.07516606
87	0xbd573773	-0.052543115
88	0xbda1fd09	-0.07909591
89	0xbce0868a	-0.027407903
90	0xbd815672	-0.06315316
91	0x3ca55eb5	0.020186761
92	0x3c304acf	0.010760023
93	0xbd395d78	-0.045255154
94	0x3db28c2c	0.08718142
95	0xbdc04f8f	-0.093901746
96	0xbd7c85fb	-0.06165121
97	0x3d087217	0.03331193
98	0xbdb4b696	-0.08823888
99	0x3d8c3b32	0.06847228
100	0x3d10794e	0.035271935
101	0x3ccd715d	0.02507847
102	0xbd892ce8	-0.06698018
103	0xbda9e791	-0.08296121
104	0x3d36ebf8	0.04465863
105	0x3db471fc	0.08810803
106	0xbc2b6e77	-0.010463349
107	0x3d8ab065	0.06771926
108	0x3d1fc519	0.039006326
109	0xbd8eb664	-0.06968382
110	0xbd9b58a8	-0.07585269
111	0x3d263058	0.040573448
112	0xbd79ee77	-0.061018433
113	0x3ce1566d	0.027507031
114	0xbcd41095	-0.025886813
115	0xbd861503	-0.065469764
116	0x3d3387d4	0.043830708
117	0x3c80159b	0.015635302
118	0x3ce57904	0.028011806
119	0x3d0c3d53	0.03423817
120	0x3cf39f32	0.029738996
121	0xbd180f64	-0.037124053
122	0xbcf34aaa	-0.029698689
123	0x3d01bda9	0.031675015
124	0x3da69827	0.081344895
125	0xbd90d46a	-0.07071765
126	0xbd4c509f	-0.049881574
127	0x3dbc5990	0.0919677
