GodkendteVSrandoms/face_embedding_model.pth (torch, 442947 bytes, 8 tensors)

conv.0.weight f4 [32, 3, 3, 3]
00000000: ac01 53bd 46dd 053e 480a 66bd 90bf 64bd
00000010: 6c26 933d ea93 08be 2b4d f53d 13c7 29ba
00000020: 32c7 21be 8845 ee3d 1272 6b3d f968 a2bd
00000030: 8da2 ee3c b97f 42be 8e3d 44be db83 8abc
00000040: d8ee 02bd b699 f33d 439c 6f3d 4f48 21bd
00000050: ac30 393d e4ab 963d 415d 1bbe 0cb2 2fbe
00000060: 203b 023d 3060 013e c432 20bd 2433 3a3e
00000070: 161e c3bd f18e 193e 0e59 3c3e 6f37 f1bb
00000080: 081a 193e a740 b23c 2d6a ac3d 4b57 dcbc
00000090: 47f0 8c3b f02f 31be 7e9a 7bbd 2ced 75bd
000000a0: 72a5 8f3c c065 0dbe 9a6d 933d 408a 833c
000000b0: 48b3 d23d 4e71 7abd 10ce ce3d 6698 063e
000000c0: cf4e 1a3e f7b2 923c f291 ed3c 1a7f 99bd
000000d0: f1d0 31be 3b40 2abe 6046 1bbd 1e19 033e
000000e0: 3700 81bd 5d57 94bd 1593 e03d a761 253e
000000f0: 8f10 10bd 20e1 223d 0f1a 1bbe 08ae 4cbd
00000100: 3ebc c33d d6b8 4e3e 55cb 6abd 7425 333e
00000110: c77c ecbd 59bb 33be 8272 09be 1961 f53d
00000120: d5f9 113d 5c00 e9bd 94c9 22be b2de 083e
00000130: a50c 10bd dc6c fa3c 75ec 0ebe cca2 b13c
00000140: e34a 30be 695f 333e aae0 ad3d 52c5 d73d
00000150: 30a2 0f3e 773c d53d 820e 01be c8eb c4bd
00000160: 3356 a13d d2df 3d3e 841e 0fbe 6f90 8dbc
00000170: c0e0 1abe f549 b7bd 4395 a4bd 5a60 ce3c
00000180: 26a0 0a3e 0ce6 313d b2d9 a3bd 20f3 733d
00000190: 9af8 ee3d 4bf9 d93d e46b 2ebe 5561 5cbc
000001a0: d86a b83d 7b5b d6bc abc7 b5bd 6955 c8bd
000001b0: 8b05 473d 53d7 d53d d7c2 f9bc 3e24 ff3d
000001c0: 28e3 c43d 0de8 f3bd a2a7 38be 110d 113e
000001d0: 36dd 743d 8316 a53d f599 b13c 3af9 2b3e
000001e0: 49f7 adbd 0f04 113e 85a3 023d 22b8 36be
000001f0: fff4 86bd 7baf e4bd 1488 ddbb b4d1 14be
00000200: 067c 00be ec03 243e a9e0 a1bd 15c9 cbbc
00000210: a537 fd3d 5414 d73d 05d2 26be 2853 233e
00000220: 8547 ba3d bb92 b3bd 93ef 3f3b 47d1 633d
00000230: e8c9 9c3d a5b5 b7bd 3c58 2abe 5d95 603d
00000240: 7f46 423c e25f 08bc c6b2 8b3b 9e0e c9bd
00000250: 5424 d4bd 367a 8dbd 3efe 3fbd 6c49 dabd
00000260: 2da1 65bd a6e1 453d e57c 8c3d fc17 453e
00000270: 2413 13bc a54c d93c 00cb c53d 8266 563c
00000280: 0a66 a9bd 6899 81bc 7c41 4fbd c80b 193e
00000290: 77c9 2bbd c659 4e3d c31c 38be aa92 03be
000002a0: e3f3 babc 7f9e bf3d 0a92 9dbd a414 2f3d
000002b0: 246e 19be 4a41 ebbd dc92 0b3c 4dad 413d
000002c0: 3c24 00be 972b fabd 10b8 f0bc 53d1 67bd
000002d0: ae41 bc3d 516e 123d 67c6 a3bd c3a0 993d
000002e0: dda4 663d 74bc 2fbe ed0e 243e 292e 293d
000002f0: d3f8 13be cfcb 1bbe b652 1f3e f79b fe3d
00000300: b8c7 02bc e5fb 603d 12b2 fc3d 02eb 4dbe
00000310: b389 893d 39c1 03be 44d3 26bd 6032 c53d
00000320: c2a4 bf3d f989 203e 2cdd 343e f44a fdbc
00000330: 89df 37bd 8bb6 073e 91d1 13be 8d7f 7ebd
00000340: 0922 2fbe c92e 263e 0cf3 553d 52de adbb
00000350: f8d2 8d3d fad9 203e f638 293e 6f03 0dbe
00000360: f4bc bebd 32c2 0bbe af06 563c b5a5 f6bd
00000370: 4797 1bbe b40f f4bd ec31 0dbe accc b0bb
00000380: 371d f93d 4f4e fa3c 0502 c9bb bb3d 923d
00000390: 977d 96bd ce47 ef3d ad90 48be 725f 193e
000003a0: d130 89bd 1f68 f83d c421 2ebe 744a 193e
000003b0: 2724 1ebd 257f 2dbb 9ae1 4abe 2cb7 173e
000003c0: b398 d2bd ee90 b2bd 04c4 4b3d da3a 063e
000003d0: e828 1a3e 0c97 98bd 5fcc 263d 0dc6 a7bd
000003e0: cd0e 80bd cc27 d03d 4253 09be a066 d0bc
000003f0: fd40 973c edc9 09be 68ec cebd 6d12 0dbd
-0.051515266 0.1307269 -0.05616215 -0.05584675 0.07185063 -0.13337675 0.11977609 -0.0006476503
-0.15798643 0.11634356 0.057481833 -0.07930178 0.029130245 -0.18994035 -0.19164106 -0.016908577
-0.03196606 0.118945524 0.058498632 -0.0393756 0.045212433 0.07357004 -0.15172292 -0.17157763
0.031794667 0.12634349 -0.039110914 0.18183571 -0.09527223 0.14995934 0.18393347 -0.0073613445
0.14951336 0.021759344 0.08418689 -0.026897093 0.004301104 -0.17303443 -0.061426632 -0.060040638
0.017534945 -0.13808346 0.07198639 0.016057134 0.102881014 -0.061143212 0.10097897 0.13144073
0.15069126 0.017907603 0.029000256 -0.07494946 -0.17364861 -0.16626064 -0.03790891 0.1280255
-0.06298869 -0.07243226 0.10965554 0.16150533 -0.03517204 0.039765477 -0.1514666 -0.049970657
0.09557389 0.20187697 -0.05732282 0.17494756 -0.11547237 -0.17551936 -0.13422588 0.119814105
0.03563865 -0.11377022 -0.15897208 0.13366202 -0.03516831 0.030569486 -0.13957389 0.021684073
-0.17216067 0.17516865 0.08490117 0.10535683 0.14026713 0.104119234 -0.1260319 -0.09615284
0.07877769 0.18542412 -0.13976485 -0.017280785 -0.15124798 -0.08949653 -0.08036282 0.025192428
0.13537654 0.04343228 -0.080005065 0.059558034 0.11668511 0.10643252 -0.17033345 -0.01345094
0.09004754 -0.026166668 -0.08875974 -0.09781916 0.04858927 0.104414605 -0.030488415 0.124580845
0.09613639 -0.119094945 -0.18032697 0.1416514 0.059781276 0.080609344 0.021679858 0.16794291
-0.084944315 0.14161704 0.031894226 -0.17843679 -0.06589698 -0.11166283 -0.0067606065 -0.1453312
-0.12547311 0.16017121 -0.07904179 -0.024876157 0.12364129 0.10501924 -0.16291054 0.1594969
0.090956725 -0.08768221 0.0029287084 0.055619504 0.07655698 -0.08970193 -0.16635221 0.054829944
0.011857628 -0.0083236415 0.004263255 -0.09817241 -0.103584915 -0.069080755 -0.046873324 -0.10658535
-0.056061912 0.0483109 0.06859759 0.1924743 -0.008976731 0.026525805 0.0965786 0.013085963
-0.082714155 -0.01582022 -0.05059956 0.149459 -0.04194018 0.050378583 -0.17979722 -0.12848917
-0.022821372 0.093564026 -0.0769387 0.042744294 -0.14983422 -0.11487062 0.008518901 0.047284413
-0.12513822 -0.12215345 -0.029384643 -0.05659611 0.09192215 0.035749737 -0.079968266 0.07501366
0.05630957 -0.17161733 0.16021319 0.041303787 -0.14450388 -0.15214466 0.15558895 0.12432092
-0.007982187 0.054927725 0.12338652 -0.2010918 0.06715717 -0.12866677 -0.040728822 0.09628749
0.09357597 0.15677632 0.17662495 -0.03091953 -0.044890914 0.13253228 -0.14435412 -0.06213336
-0.17102827 0.16228785 0.05223374 -0.0053060437 0.06925005 0.15708151 0.16525635 -0.13770841
-0.09313384 -0.13648298 0.013063117 -0.12043325 -0.15194426 -0.11917058 -0.13788575 -0.0053954925
0.121637754 0.030554919 -0.006134274 0.071406804 -0.07348173 0.116836175 -0.1958644 0.14977816
-0.06698764 0.121292345 -0.17005068 0.14969808 -0.038608696 -0.002647349 -0.19812623 0.14815968
-0.10283031 -0.087190494 0.049747482 0.13108388 0.15054667 -0.07450685 0.040722247 -0.08192072
-0.06252823 0.10163841 -0.13410667 -0.02543956 0.018463606 -0.13455935 -0.10103685 -0.0344414

conv.0.bias f4 [32]
00000000: d137 cbbd 92a3 fbbd f233 c73d 1fa2 d9bd
00000010: 4859 293e 01e1 9d3d dba5 8ebd 4c47 113e
00000020: fdb1 11be 90a3 62bd aff1 343d a1d4 063e
00000030: 2379 1bbe e324 373e d4c8 1c3e 409c 23be
00000040: 1703 0dbd bfb7 17be 5dbf f1bd 12c7 ee3d
00000050: e654 543e e78b b2bc ece0 453e 4817 d4bb
00000060: 3f51 853d 6116 ba3d bf12 01bd 79b3 c1bd
00000070: b5d7 463d ce3a 433e ef62 fcbd 57bc c6bd
-0.099227555 -0.12287058 0.09726705 -0.10626625 0.16537964 0.07708932 -0.06965228 0.14187354
-0.14228053 -0.055331767 0.0441758 0.13167049 -0.15182929 0.17885165 0.15310985 -0.15977573
-0.034426775 -0.14816187 -0.11804078 0.116590634 0.20735511 -0.021795226 0.19324082 -0.006472502
0.06509637 0.090863 -0.03151202 -0.0945806 0.048545558 0.19065401 -0.123235576 -0.09703892

conv.3.weight f4 [64, 32, 3, 3]
00000000: 5b3c 243c 4dad 10bd 89f7 723d 68d9 37bb
00000010: 06cc b7bc 4e08 8aba b3fb 28bc 067a 863c
00000020: a598 6f3d 9be4 57bd d038 3e3d b624 163d
00000030: b9d1 78bc 5e5c b73c 927d 08bd 7cbd 10bd
00000040: 62bf 56bd 6f12 46bd 839b a93c 0e8a 023b
00000050: 361b 86bc 9616 fe3c cb15 3dbd 3384 683d
00000060: 1e54 6bbd 30ca 103c 271b 383a b356 15bd
00000070: 72db e7ba 6c44 8d3c 2ff2 853d db60 40bd
00000080: bdf1 2f3d 936a e1bc 8a01 44bd 2bd9 543d
00000090: 99a0 8539 6d5b a4bd d430 96bd c2c1 8a3b
000000a0: dcfd 853b 80ea 39bc 3cf9 30bd 8aaf 403a
000000b0: e0a0 5f3b 546f 67bd f5ea d6bb 350c f73c
000000c0: 4fc7 b8bd f780 95bd 0e4c ac3c 4e62 63bd
000000d0: 26aa 95bc 78e9 30bc beca 1abd fcf8 5b3d
000000e0: e945 a3bc 8250 4e3d 89a2 f53b c5ac 853d
000000f0: 1c33 683d 4c32 24bd df73 4bbc 86f1 9abc
00000100: 2eac d3bc 1f25 a7bc bb1a 09bd be6d 43bd
00000110: 1175 22bc 6129 dfbc 3332 b43c 71b0 82bd
00000120: d854 743d 4b1d 3d3d 46c4 953d 0aea 1e3b
00000130: 0b68 39bc 4a6a 4d3d dc59 2b3d 67ed 11bd
00000140: 6945 653d 7cd0 373d f953 1e3c 37dc 50bc
00000150: a22d fb3c f748 793d f13c 7d3d 6b4e 8abc
00000160: a9a1 023c 9320 273d fd9f 3ebd 4307 f53c
00000170: 800f c03b 113f 12bd 5533 b8bb 5b0a 7dbd
00000180: 8e4d 52bb 474d 103d 23c8 c93c fe84 9b3c
00000190: d325 953c 630b 15bc 0f82 5dbd 6a8f 1ebb
000001a0: 54c1 77bd 9ded bc3b 173b ecbc 143d 10ba
000001b0: 98e5 dfbb 6151 04bd 228d efbb 564f 3dbb
000001c0: f6b4 67bc dcb7 84bc 53af aa3c 534c 00bd
000001d0: 2d1b 603d 6529 ddbc 5a18 133d cebb 603d
000001e0: 534b 363c 6a3e a1bb 8a46 93bc a784 dc3c
000001f0: 3d0a 603b 5642 da3c 8943 d2bc cf13 fe3c
00000200: 3ba5 353d 9458 63bd 2ae5 33bd f9af 26bb
00000210: 4b95 393c 640b 1a3d 2cdb 24bd 8617 f03c
00000220: e688 f9b8 7b56 8abb a57e 0f3d 3b71 0a3d
00000230: c8ad 2e3d cf92 f93c bbbe 9a3d c7c4 253d
00000240: e33a 03bd 0999 3f3d 8819 6c3c 44f2 b4bc
00000250: 0f95 d5ba 1bd7 c03c a140 013b f73f 833d
00000260: a3c1 40bd fe6b 753c bec9 413d da07 203d
00000270: bf73 df3a d6ac 07bd 70d6 05bd 9b32 7f3c
00000280: fc5d 0f3b e1c9 353d 49ac 19bd ab7b ad3c
00000290: d0f2 32bd f67a 00bc 8e6b aebb 11e6 b23c
000002a0: 1b63 0d3d ebba 66bd bb49 8c3d 8e4f 923c
000002b0: 2d19 9dbd 60f9 fd3b 592b b6bb 8d46 32bd
000002c0: 9d34 c0bc 020c 68bd 2273 a8bb 743a fb3c
000002d0: 78b6 c9bc 0317 8bbd dbce 2cbc 19a2 49bd
000002e0: a648 c0bb bb54 6d3c e1c0 7dbb da79 c73c
000002f0: 496f a63b f111 4dbd 2197 62bd db38 6cbd
00000300: 35f2 ae3a c510 bfbc 70c2 67bd e0a4 b83b
00000310: 375f a53c 6e15 37bd 74c5 66bd bbc9 8a3c
00000320: cb7e 59bd 0897 ca3c 9f0b 37bd 4618 8bbd
00000330: 976f b43c 2c04 b63b b2a5 7e39 7a4d 223b
00000340: 64b7 76bd b71b a23c ffea efbb f788 023d
00000350: 9f3e 62bd 22be 72bd 66d2 d4bb 8af4 4a3a
00000360: 2e8e e53c 0ec1 d9bc 403e 44bd 6715 e43c
00000370: 63d4 75bd 5786 aabc 9259 bbbc 7af3 89bc
00000380: 1865 783b bad3 ab3b 87a3 89bc 2aa9 60bd
00000390: 1b28 f23c 1ce0 8ebd a087 b13c 5c0a 66bd
000003a0: 898e 91bd 1ac1 163d db03 4d3b 6b6e 84bc
000003b0: 243d 913d ce0f c1bb 112b 8f3d 51b6 60bc
000003c0: b1e9 833d b149 08bc f17e 313d d734 47bb
000003d0: 4392 acbc fc19 f2bc 72f6 383a bbf4 1b3c
000003e0: 2ac1 823d 11ac b4bc 1042 303d 30f6 af3c
000003f0: 26b8 b63c 2567 903c a481 153d 270b 4fbd
0.0100241555 -0.035321523 0.0593181 -0.0028053168 -0.022436153 -0.001053104 -0.010313916 0.016415607
0.058495183 -0.05270825 0.0464409 0.036656104 -0.0151867205 0.022382911 -0.03332288 -0.035336956
-0.05242861 -0.048357423 0.020704037 0.0019918713 -0.016370397 0.03101663 -0.04616336 0.0567667
-0.057453267 0.008837268 0.0007023089 -0.036459636 -0.0017689301 0.01724454 0.065403335 -0.04696737
0.04295515 -0.027516639 -0.04785303 0.05196492 0.0002548739 -0.080252506 -0.07333532 0.0042345235
0.0040891003 -0.011347413 -0.04320644 0.0007350376 0.0034122989 -0.056502655 -0.006558771 0.030157188
-0.0902239 -0.07299989 0.02103236 -0.055513673 -0.01826961 -0.010797851 -0.037791006 0.053704247
-0.019930797 0.050369747 0.0074961823 0.06527094 0.056689367 -0.04008703 -0.012417763 -0.018913995
-0.025838938 -0.020403443 -0.033472758 -0.04771208 -0.009915606 -0.02724141 0.021996593 -0.0638131
0.059651226 0.046170514 0.07312827 0.0024248385 -0.01131631 0.050150193 0.041833743 -0.035626795
0.055974398 0.04487656 0.009663575 -0.012747816 0.030661408 0.0608606 0.061825696 -0.016883096
0.007973113 0.04080255 -0.046539295 0.02991069 0.0058612227 -0.035704676 -0.0056213536 -0.061777454
-0.0032089683 0.035229947 0.024631565 0.018984314 0.018206513 -0.009096953 -0.05407911 -0.0024194368
-0.060487106 0.0057656304 -0.02883677 -0.00055022654 -0.0068327896 -0.03230417 -0.0073105255 -0.00288864
-0.014142266 -0.016200952 0.020835554 -0.03132279 0.054713417 -0.026997278 0.035911895 0.054866605
0.011126357 -0.0049207704 -0.017977972 0.026918722 0.003418579 0.02664296 -0.025666969 0.031015305
0.04434703 -0.055504397 -0.04391972 -0.0025434478 0.011327098 0.03760852 -0.04024808 0.029308092
-0.000118987446 -0.004221735 0.035032887 0.03379939 0.0426462 0.030465512 0.0755591 0.040470865
-0.03203858 0.046776805 0.014410384 -0.022088178 -0.0016295033 0.02354007 0.001972236 0.06408685
-0.047059666 0.014979361 0.047311537 0.039069988 0.0017048045 -0.033123814 -0.032675207 0.01557603
0.0021876087 0.04438198 -0.03751782 0.021177134 -0.043688595 -0.007841816 -0.00532288 0.02183822
0.034518342 -0.056330603 0.068500005 0.0178602 -0.076708175 0.007750675 -0.0055593667 -0.043524314
-0.023462588 -0.056652077 -0.005140678 0.030667521 -0.02462314 -0.067914985 -0.010547365 -0.049226854
-0.0058680354 0.014485533 -0.00387197 0.024350096 0.005079184 -0.05006594 -0.05531991 -0.05767141
0.001334733 -0.023323426 -0.056581914 0.005634889 0.020187004 -0.04469817 -0.05634065 0.016941896
-0.053099435 0.02473022 -0.044688817 -0.06791739 0.022025866 0.0055546965 0.00024285054 0.0024765418
-0.06023349 0.019788606 -0.007321715 0.0318689 -0.0552355 -0.059263356 -0.006494808 0.00077421276
0.028021898 -0.026581313 -0.04791093 0.027842237 -0.060017 -0.020816011 -0.022869859 -0.016839731
0.0037902053 0.0052437456 -0.016801609 -0.054848827 0.02956014 -0.06976339 0.021671116 -0.056162223
-0.071072645 0.03680525 0.0031282816 -0.016165933 0.0709174 -0.0058917766 0.06990636 -0.013715343
0.064410575 -0.008318351 0.04333395 -0.0030396485 -0.021065837 -0.029553406 0.0007055766 0.0095187975
0.06384499 -0.022054704 0.043031752 0.021479696 0.022304606 0.017627308 0.036500588 -0.050547745

conv.3.bias f4 [64]
00000000: d580 23bd 2e02 02bc 158a 033d ed44 6f3d
00000010: 8a7b 523d 0d6e 503c 7556 753d e429 a13b
00000020: a9ca 0fbd 5152 93bb 5879 96bc 6e76 08bd
00000030: 062d dfbc 21af 75bd f1a3 0fbd 5df9 183c
00000040: 6d49 f1ba c64d 8e3c d255 c33c 4496 023d
00000050: b1e4 6f3d 1dc5 eb3c ed6a 7e3d ff7c 2a3d
00000060: 1732 353d 0af3 9dbc 05ac 42bd 0366 20bc
00000070: 864f fcbc 26a9 30bd 3f25 86bc eefb 8c3d
00000080: 23e8 04bd 35b7 debc 1d69 17bd 18d1 56bd
00000090: c4d9 29bd 2d11 d23a 1eb6 24bc 897d 8f3d
000000a0: fde8 3c3c 6d41 b9bc 7ea0 e4bc 11ec 453d
000000b0: 2009 5abd 80f6 4abd 7fcb 84bd 7955 683d
000000c0: e7fe 94bc a22a 373b 8adb a03d 7452 7ebd
000000d0: e156 ef3c d423 1dbd 05e1 1ebb 2f28 8d3d
000000e0: 7895 19bd 00c9 e13b 471a 6bbd 1a8f d1bc
000000f0: e7f2 4c3d 83e3 123d 935f 4dbd 1e0b 09bd
-0.039917786 -0.00793509 0.032114107 0.058415342 0.051387347 0.012721551 0.059896905 0.004918324
-0.03510538 -0.004495897 -0.018368408 -0.03331607 -0.027243149 -0.05998147 -0.035068456 0.009336797
-0.0018408723 0.01737107 0.023844633 0.031881586 0.058567706 0.028780514 0.06211369 0.04162311
0.044237223 -0.01928093 -0.04752733 -0.0097899465 -0.030799638 -0.043130063 -0.016375182 0.06883989
-0.032447945 -0.02718697 -0.03696548 -0.0524455 -0.041467443 0.0016026847 -0.010053186 0.07006366
0.011530158 -0.022614205 -0.02790856 0.048320834 -0.05323136 -0.049551487 -0.06484126 0.056722138
-0.018187953 0.0027948995 0.07854374 -0.062090352 0.029216232 -0.038364246 -0.0024243009 0.0689243
-0.03749606 0.006890416 -0.057398107 -0.025580931 0.050036337 0.035861503 -0.050139975 -0.033457868

conv.6.weight f4 [128, 64, 3, 3]
00000000: bf9f 29bd caec 8c3c b20c 82bc b15e 963c
00000010: f7e6 1cba 6926 0b3b 72bd c2bc 57bd 0d3d
00000020: a701 1dbc a121 99bb 1bc0 833b 5290 073d
00000030: 56b3 43bc cdc9 e0bc 15bf 083d 88f0 1c3a
00000040: 9db9 c8bb e7ed 8bbc 04d1 1fbd 9875 053d
00000050: 68bf 30bd 29a0 fc3c 4314 6dbc ebac 1dbd
00000060: e604 943c 8d12 f9bb 36ff bc3c e26e ac3c
00000070: 15bd a53b 7efc 233d d857 6c3b 34cb 123c
00000080: 20cf fa3b 1d33 5f3c 314c 83bc 5ed4 413c
00000090: 6fca 1abd 6acd 2cbd 112e 0ebd 0fb0 f13c
000000a0: 2518 48bc 6ff4 e2bc 46b1 143d 8c3d c03c
000000b0: 5eba 17bc e262 d1bc 7f7d 5bbc fc64 563c
000000c0: fd3c ddbb 81e9 253c 011c a43b bf6f 3dbd
000000d0: 43a0 14bd cfb7 4bbd e483 5bbc 6720 bc3c
000000e0: 12a3 363d f495 573d af9f 543d 9630 5b3b
000000f0: 4ca9 34ba 964b 463c ea03 8c3d 9d6d e33b
00000100: 9607 ad3b 4540 153d b362 0cbb 2fd0 9c3c
00000110: 0843 3e3d b39e 25bc 240b 7b3d 7a62 0c3d
00000120: 3a74 ff3c 0302 1c3d fbb1 d2bc ef66 15bd
00000130: 8893 eebb 46c4 123d 1c31 473c fec0 b23b
00000140: 8fc3 a23c 9926 e93c 6241 d43c b227 05bd
00000150: fefd 9fbc e0ff 18bd 8808 303d 8ebd 3cbc
00000160: 6e9a 803c a46a 00bd 13a2 7ebc d850 183d
00000170: edf4 3dbc dc0e d0b8 b53d a43c 030e b9bc
00000180: 3386 15bc 604b ddbc 7b31 2e3d af56 07bd
00000190: fde1 8f3c 3cf2 dbbb 786d 50bc ea00 033d
000001a0: fe9e b13c ccc2 e33c db05 bfbc bcc7 2e3d
000001b0: 776a be3c ee42 2fbd 6270 dabc a19f fc3b
000001c0: 9902 0cbd f4ce 2dbd 9093 5aba 8845 023d
000001d0: e792 76bc d17e 733c 4c07 f4bc 2f22 b73c
000001e0: c18e a93c 06aa 193c 9e95 753b 3eaa 813c
000001f0: 1824 9dbb 60e6 103c b0da ae3b 25b0 12bd
00000200: 1b16 9f3c 0446 a63c 4454 2c3c c413 96bc
00000210: a105 c5bb c452 dd3c 3069 e0bc 4516 f83b
00000220: 6a4b 15bd 4e1b fbbc 2807 083d f53f e0bc
00000230: 73c7 643a adfe ab3b 707a 5e3c 3063 a03c
00000240: da1c 773d 4053 dc3b 759b 29bc 18a1 95bb
00000250: 940c 473d ec56 6e3d 3340 513d 2bf5 3b3d
00000260: 9c03 003d 7238 40bd c74c 0d3c 7364 c1bc
00000270: c0e5 11bd 75ca ec3c c2fd f0bb 8601 d5bc
00000280: 9885 39bd 6a8e 843c ef56 0ebd d668 c83b
00000290: ec09 7e3c 40c9 92bb 12d7 483a 7acc 173c
000002a0: e039 82ba 2eb4 b8bb c7ad 0cbc 7fa5 d63c
000002b0: c08b a3bc 5936 2b3d 7453 133d 4af7 143d
000002c0: cc30 603b 5436 4c3d 490e 5cbc 255d 323b
000002d0: 056c 2d3d f978 8d3d f389 8b3d 4dd6 143d
000002e0: 7636 953d 070c 3a3c 9dfa 8b3d 10f6 6e3c
000002f0: 27b8 e63c 4847 89bc 4167 02bd 1d4e 13bd
00000300: 56f9 133d 740f 0c3d edf3 e43c ac20 333d
00000310: d504 c1bc d168 a2bc 1e07 09bd 3f48 a63b
00000320: 98aa 463b ee7b 77bc a3e3 023d 0c36 43bc
00000330: 2894 50bb 393b 113c 853b c23b d3ba a23b
00000340: eedd e33c 0c3f 203b 7c31 a3bc e6b6 d73b
00000350: c839 cdbc e0ee 153d 12a9 2f3c c83e bebc
00000360: 932a 833c 7d5c 713c 4768 d5bb ac18 4d3c
00000370: f89d 003d dd64 913c f4a9 803b 6ea7 6e3b
00000380: eaed 583c b52e 95bc c8c0 f9bc cf8b cf3c
00000390: 00cd b63c b4a1 6d3c a09e 43bd 5e28 a83b
000003a0: 1405 193d e4b4 c13c 6230 653c 9d47 dbbc
000003b0: c8ce 89bd 1e3f 19bd d31c debc 46e6 22bd
000003c0: e778 5b3d 07c1 3b3d 1f90 3c3d a634 423c
000003d0: 5ce8 3e3d 4250 e03c 26ca 02bc d70f 92bc
000003e0: f667 123d 3c04 9e3b 5efc 62bc d2ba 253d
000003f0: f0c6 b5bc 4432 dfbb c578 5d3c 3c00 bb3c
-0.04141211 0.017202754 -0.015875194 0.0183557 -0.0005985344 0.002123261 -0.023771975 0.034604397
-0.0095829135 -0.0046731983 0.0040207035 0.03309662 -0.0119446125 -0.027439976 0.033385355 0.00059867697
-0.0061256425 -0.017081214 -0.039017692 0.03258285 -0.04315129 0.030838089 -0.014470163 -0.038494986
0.018068742 -0.0076010884 0.023070913 0.021048967 0.0050579407 0.040035717 0.00360631 0.00895958
0.0076540858 0.013623026 -0.016027542 0.011830417 -0.037790712 -0.042188086 -0.0347119 0.029502897
-0.012212788 -0.027704446 0.036301874 0.023466848 -0.009260742 -0.025559846 -0.01339662 0.0130856
-0.006751655 0.010126472 0.005008221 -0.046249148 -0.03628565 -0.04973584 -0.013398144 0.02296467
0.04458911 0.05263324 0.0519101 0.0033445708 -0.0006891682 0.012102982 0.06836684 0.006940557
0.0052804453 0.036438245 -0.0021421134 0.019142238 0.046450645 -0.010108638 0.06128992 0.034273602
0.03118335 0.038087856 -0.025719633 -0.03647512 -0.0072807707 0.035831712 0.012157705 0.0054551354
0.01986864 0.028460788 0.025910083 -0.03250856 -0.019530293 -0.037353396 0.042976886 -0.011519803
0.015698638 -0.0313517 -0.015541571 0.037186474 -0.011594039 -9.920981e-05 0.020048955 -0.02258969
-0.009126234 -0.02701348 0.042527657 -0.033041652 0.017563814 -0.006712226 -0.012721412 0.031983294
0.021682259 0.027802847 -0.023318222 0.04267095 0.023244126 -0.04278844 -0.026664916 0.007709459
-0.034182165 -0.042433694 -0.00083380286 0.03180459 -0.015049673 0.014861778 -0.029788636 0.022355167
0.020697953 0.009378916 0.0037473212 0.015828248 -0.0047955625 0.008843988 0.005336128 -0.035812516
0.01941972 0.020297058 0.010518137 -0.018319972 -0.006012634 0.027017005 -0.027393907 0.007571014
-0.036448874 -0.030652668 0.03320995 -0.027374247 0.000872723 0.0052488656 0.013578996 0.019578546
0.06033025 0.0067237914 -0.010352005 -0.004566323 0.04859598 0.058188364 0.051086616 0.045888107
0.031253442 -0.04692883 0.008624262 -0.023607468 -0.035619497 0.028905133 -0.007354469 -0.026001703
-0.04529342 0.01618119 -0.034750875 0.006116013 0.015505295 -0.0044795573 0.00076614425 0.00926506
-0.0009935461 -0.0056367135 -0.008586354 0.026201962 -0.019964099 0.041799877 0.03596826 0.036368646
0.0034208773 0.0498565 -0.01343114 0.0027216163 0.042339344 0.06907839 0.06813421 0.036337186
0.07285778 0.011355407 0.0683491 0.014585033 0.028163983 -0.016757622 -0.03183675 -0.035963167
0.036126457 0.034194425 0.027948344 0.04373233 -0.023561874 -0.019825371 -0.033454053 0.0050745304
0.0030314084 -0.015105231 0.031955373 -0.011914741 -0.003182659 0.008864217 0.0059275054 0.004966119
0.027815785 0.0024451641 -0.019921057 0.0065830825 -0.025051966 0.036604762 0.010721462 -0.023223296
0.016011512 0.014731524 -0.006512675 0.012518089 0.03140065 0.01774829 0.00392651 0.0036415714
0.013240317 -0.018210748 -0.030487433 0.02533522 0.022314548 0.014503885 -0.0477587 0.0051317653
0.03735836 0.023645826 0.013988586 -0.026767546 -0.067288935 -0.03741371 -0.027113354 -0.039770387
0.0535821 0.045838382 0.046035882 0.011853373 0.046608314 0.02738202 -0.007982766 -0.017829819
0.035743676 0.004822282 -0.013854114 0.04046137 -0.022189587 -0.006811412 0.013517563 0.02282726

conv.6.bias f4 [128]
00000000: 1869 a6bc 1a44 94bc b322 213c 25f3 253d
00000010: 55e0 4a3d 72fb aabc 98e9 d9bb a0c6 463d
00000020: 6373 88bc 223e dfbc b22d e2bc 610c c13c
00000030: c479 963c 9e76 3c3d bc98 49bd 1c77 14bd
00000040: 9e0a b13c 1455 303b bdc6 11bc 9723 d63c
00000050: fd62 833a c66d a03c 715e fd3b b473 55bc
00000060: 16ae d43b da71 10bd a4d4 993c 6d6f a03a
00000070: e0c0 023a ec77 c5bc 59a6 c0bc 6831 293c
00000080: 2a7d f6bc 3286 25bd a3f5 733d b17c af3c
00000090: ad68 9b3c e383 04bd 78cc 1ebd 9d84 12bd
000000a0: 88c5 23bd be59 573d ceab 6cbc 7f48 2a3d
000000b0: f5ff d3bc 127d c0bc 0a2b 083c 9719 e0bc
000000c0: 8e9d a3bb b720 ce3c 64aa 873c 0c96 eebc
000000d0: ac08 0cbd fa1d e1bc 9f0b d63b 4a28 f33b
000000e0: 318f f9bb ae0d babc 9f0e 8e3c ad56 8eba
000000f0: 6c3a 3f3d b616 963c a4a6 19bb f04c 8dbc
00000100: 284a 40bd 03d6 20bd 3aca 423c 664a 00bd
00000110: 5683 143d 2456 a5bc 8451 2cbb 6adf 8c3c
00000120: d4a3 e83c bc0c 9d3a f5bb 47bd 3ee8 19bd
00000130: 2c6e cab9 4e18 ab3c b071 c2bc d025 be3c
00000140: fc62 33bd ea8d a5bc 46aa a13c 7193 13bc
00000150: 6315 983c b599 a3bb 000a 22bb 33e0 e3bc
00000160: ad2a 0bbd 2247 453d 20c8 c2ba 63c9 87bc
00000170: 8d4a d3bc 5e03 f0bc a89c 90bb d8c0 04bb
00000180: f40d 9dbb d824 3e3c de57 033d edea 55bb
00000190: 50a6 42bc adec 333c 9a8f 5e3d dbcd 05bc
000001a0: 5f64 1d3c 4038 1abd 41c6 91bc ed5e 513d
000001b0: 0756 673d f9bc f83c 4358 d13c 2485 d83b
000001c0: bc5c 443d 14cb ac3c 13b1 8f3b 393b 473d
000001d0: 58dc 7f3c 90cb 563d 3da1 833c 8410 743d
000001e0: 6176 cb3c 74e9 3ebc 3203 ad3a cadb 6b3d
000001f0: c3bc d9bc 6bf9 17bd dea0 053c d72e cfbc
-0.020313784 -0.01809888 0.009834933 0.040515084 0.049530346 -0.020871852 -0.006650161 0.048529267
-0.016656583 -0.027251307 -0.02760968 0.023565473 0.01836861 0.04601156 -0.049217924 -0.036246404
0.021611508 0.002690618 -0.008897481 0.026140017 0.0010024008 0.019583594 0.0077322056 -0.013028074
0.006490479 -0.035264827 0.018778153 0.0012240239 0.0004987847 -0.024105035 -0.02351682 0.010326721
-0.03008898 -0.04041118 0.05956043 0.021421762 0.018970812 -0.03235234 -0.038769215 -0.035771
-0.039983302 0.05257582 -0.014445258 0.041573044 -0.025878886 -0.023497138 0.008311043 -0.027355952
-0.004993147 0.025162084 0.01656074 -0.029124282 -0.034187958 -0.027480114 0.006532147 0.0074205743
-0.0076159467 -0.022711601 0.017340956 -0.0010859572 0.046686575 0.018321376 -0.0023445273 -0.0172486
-0.04694572 -0.039266597 0.011889035 -0.031320952 0.036258064 -0.020182677 -0.0026293704 0.017196376
0.028398432 0.0011981945 -0.048763234 -0.037575 -0.00038610527 0.020885613 -0.023735851 0.02321139
-0.04379557 -0.020209271 0.019734513 -0.009007321 0.018564885 -0.0049926885 -0.0024725199 -0.027816867
-0.033976246 0.04816354 -0.0014860667 -0.01657552 -0.025792385 -0.02929848 -0.004413206 -0.0020256545
-0.004792923 0.011605464 0.03206622 -0.0032641247 -0.011880472 0.010981721 0.054336168 -0.008166756
0.00960645 -0.0376513 -0.01779473 0.05111592 0.056478526 0.030363547 0.025554782 0.0066076685
0.04794 0.021092929 0.0043851226 0.048640464 0.015616499 0.052440226 0.016068095 0.059586063
0.02483672 -0.011652339 0.0013199805 0.057582654 -0.026579266 -0.037103098 0.0081560295 -0.02529089

fc.weight f4 [128, 128]
00000000: f913 2b3d b513 50bc a691 a3bd 1dd5 e0bc
00000010: cf9d 263d 46e6 403d 44fd c93d f677 853c
00000020: b165 76bd 7ec9 1e3c 3775 923d c03b 613d
00000030: 1d5c 5dbd 6f14 843d f9ce 843d 0221 31bd
00000040: 066b 06bd b08f c03d f00b 35bd adf4 d3bc
00000050: 7645 46ba adc7 293c 9974 9c3d b6ce 143d
00000060: 7653 303c c4d0 ddbc 2f65 7b3d 4cf0 2a3d
00000070: 0327 7dbc 7b54 a53d 335f 493d 5679 86bd
00000080: 8bc6 a03d 0437 c6bd c57f ad3d fa43 f1bc
00000090: ea55 663d 7f38 983d eff4 603d 06f5 89bd
000000a0: 9275 363d 4bd0 2bbd cc11 d8bc ffde b0bc
000000b0: e6c2 ef3c 9218 1e3c c7ca 94bd c01f a03d
000000c0: eb87 8fbd b607 d43c 3374 b5bc eda5 2cbd
000000d0: ca71 6abd b5b5 ab3c 7e66 48bd 06a0 b7bc
000000e0: 2eeb 993d 0253 bbbd dc09 0abd 5095 49bd
000000f0: ea77 5bbd b487 ae3d cc1f 923d c51e 7abd
00000100: 1a4d 51bd 713f bebc d7eb 71bd 8e9d fb3c
00000110: acc5 d83d c6dd 9cbd 05b3 ea3c 4aa9 41bd
00000120: f0c4 a6bd 237a 743d 02a6 88bd aadb 42bd
00000130: f841 87bd 62b9 bfbd 0727 c4bd 08ef 22bc
00000140: bccf 52bd e0f2 e13c bf63 183d 4a92 f03c
00000150: 9495 ca3c 2235 65bd 8705 88bd 86bb 27bd
00000160: 18d4 79bb 8498 14bd 2e4e a2bd 3f53 193d
00000170: 1cdb 96bd 4dca 843d 7da3 b9bd 2b8d 0ab9
00000180: 87c5 01bc 110f 963d f70e d23b a12d 633d
00000190: f788 613d 5825 a5bd 664b ce3d ce3a 54bd
000001a0: fde2 b5ba 8664 9c3d f5ad afbd 6fbf 643d
000001b0: 34bd 823d bcbb 8439 b512 093d d896 de3c
000001c0: f46e 013d 598f c3bd 811b 64bd 5d4c c53d
000001d0: af79 50bc 4ce8 0dbd b60c bcbb 3ef9 adbc
000001e0: b013 28bd cac1 b73d 7b81 efbc 1abb 053c
000001f0: f7c8 80bd d02a 89bd 0dea 8ebc 13b4 4e3d
00000200: 91f2 a83b 2092 d2bd 3cbc 973c c517 55bd
00000210: 5b24 103d 4d07 adba 47df 873d 4f21 473d
00000220: 4431 eebc bc18 553d c1c3 753d 8f35 803d
00000230: ac4f e73b f53b 753c 00b0 bbbd e360 6dbd
00000240: bd0a 7dbd 8517 79bd 59fc 12bd 278e 22bd
00000250: a99a c4bd 84ed a0bd 1dd8 673d 7ad5 80bc
00000260: a344 1e3d f8e6 0ebd 80c1 6b3d 6a3f 9e3d
00000270: 773d f0bc 1fa6 97bd b467 913d 2d80 bc3d
00000280: 3e7e 923c 7abc 25bd fdcc 913c 410b e53d
00000290: 7817 87bd 7267 57bd 54f4 27bd a41d 3b3d
000002a0: 6fe1 5cbd 44b7 3bbd 5190 c6bd f3c3 2cbc
000002b0: 1834 8abd e8c4 63bd 528c 9fbd bb29 2dbd
000002c0: 184f 953d 8496 8f3d 16e0 403b 5a3e d13c
000002d0: ebc2 07bb 1ee5 523d 84d0 05bd 1504 9a3c
000002e0: 0244 8cbd e60a 15bd 159a 963d 45d8 833d
000002f0: 8d76 71bd eb2c 47bd c7a4 9c3c 4780 1ebd
00000300: 08ff 40bd bbf9 233b 85f7 6d3d 0f84 88bd
00000310: 5d2f 483c 4eb1 45bd 1129 163c bd29 9dbc
00000320: 0c52 ccbc 35ad 053d d8c1 b4bd 724e 9dbd
00000330: a0ad 7d3d 6a38 adbc 797f 27bd cf57 9bbd
00000340: f330 2dbd b4a2 1a3d d14c cd3d 2a1c b93d
00000350: 9baa 31bd 7a16 5abd fbea 67bd c4a6 623d
00000360: 7932 913d 4294 903c 63c4 a4bd d29f 0dbd
00000370: d41b 7d3c 73be 32bd 4eca 833c 3bb6 00bd
00000380: 10e6 96bd c506 3abd ff2d 89bd c0bd 30bc
00000390: 25b1 62bc 7789 393d bdfc 8cbd 0ad4 c93c
000003a0: 13ff f8bb cb44 323d 882b e03c d731 773d
000003b0: 98d4 76bd a683 8f3d 22ac b13c f965 9fbd
000003c0: 4508 4b3d b74a 8cbd 2481 24bd 4ce2 d9bc
000003d0: c0b8 8d3d 48e4 873d 8553 f739 ed95 a93d
000003e0: cc64 853d 8805 95bd 82ed 7b3d eb54 0b3d
000003f0: 0877 cabd ba7c 3a3c 060d 823d 777a b23d
0.041767094 -0.012700011 -0.079867646 -0.02744537 0.04067784 0.047094606 0.0986276 0.016292553
-0.060155574 0.009691594 0.07151263 0.054988623 -0.054042924 0.0644921 0.064847894 -0.04324437
-0.03281691 0.09402406 -0.044200838 -0.025873506 -0.0007563451 0.010362548 0.07639427 0.036329947
0.010762086 -0.027077086 0.061375793 0.04173307 -0.015451196 0.08072754 0.049163055 -0.06566112
0.07850369 -0.09678462 0.08471636 -0.029451359 0.056234278 0.07432651 0.054921087 -0.06736188
0.044545718 -0.04194669 -0.026375674 -0.021590708 0.02926774 0.009649413 -0.07265239 0.07818556
-0.07008346 0.025882583 -0.022150135 -0.042150427 -0.057237424 0.020960668 -0.04892587 -0.022415172
0.0751556 -0.09146692 -0.03370081 -0.04921466 -0.053581156 0.08521977 0.07134971 -0.0610645
-0.05109892 -0.02322361 -0.059062805 0.030714776 0.10584578 -0.076594874 0.028649816 -0.047280587
-0.081430316 0.05968679 -0.066722885 -0.04757277 -0.066043794 -0.09361531 -0.095777564 -0.009944685
-0.051467642 0.027581632 0.0372045 0.029366631 0.024729528 -0.055958875 -0.06641679 -0.04095032
-0.0038120802 -0.036278263 -0.07925068 0.037432905 -0.073660105 0.06483898 -0.09064386 -0.00013213295
-0.007920629 0.073270924 0.0064104754 0.055463437 0.05506226 -0.080637634 0.10072975 -0.051813893
-0.0013876852 0.07636361 -0.085781015 0.055846628 0.06383744 0.00025316875 0.033465106 0.027171537
0.031599954 -0.09548826 -0.055690292 0.09633706 -0.012724324 -0.034645364 -0.00573882 -0.021237012
-0.0410344 0.08972509 -0.029236546 0.008162284 -0.06288331 -0.06697619 -0.017445588 0.0504647
0.0051558693 -0.102817774 0.018522374 -0.05202462 0.03519092 -0.0013201028 0.06634384 0.04861575
-0.029076226 0.05202554 0.06000114 0.062602155 0.007059058 0.014967908 -0.09164429 -0.057953727
-0.06177782 -0.060813446 -0.03588519 -0.03968635 -0.095998116 -0.078578025 0.056602586 -0.015726794
0.038639676 -0.034888238 0.057557583 0.07726939 -0.029326184 -0.07404732 0.07099858 0.09204135
0.017882463 -0.04046295 0.017797941 0.11183787 -0.06596273 -0.052588888 -0.041004494 0.045682564
-0.053925928 -0.045829073 -0.09695495 -0.010544765 -0.06748217 -0.055607706 -0.07790436 -0.042276125
0.072904766 0.070111305 0.002943044 0.025542427 -0.0020715545 0.051488034 -0.03266956 0.018800775
-0.06848909 -0.036387347 0.073536076 0.064377345 -0.05895095 -0.04862682 0.01912154 -0.038696554
-0.047118217 0.0025020677 0.05809738 -0.06665813 0.012218324 -0.048264794 0.009165064 -0.019184941
-0.024941467 0.032635886 -0.08826035 -0.07680978 0.06193316 -0.021145064 -0.04089305 -0.075851075
-0.04228301 0.037752822 0.10024417 0.09038575 -0.043375593 -0.05324409 -0.05662058 0.05533482
0.07089705 0.01764882 -0.0804527 -0.034576245 0.015448529 -0.043638658 0.016087677 -0.03142379
-0.073681 -0.045416612 -0.06698226 -0.010787427 -0.01383618 0.045297112 -0.068841435 0.02463724
-0.0075987666 0.043522637 0.027364507 0.060350265 -0.06026134 0.07007532 0.021688525 -0.077831216
0.049568433 -0.06850188 -0.04016222 -0.026597165 0.06920004 0.06635338 0.00047173738 0.08280549
0.06513366 -0.072764456 0.061505802 0.03401653 -0.09885985 0.011382276 0.0635014 0.087147646

fc.bias f4 [128]
00000000: 9a90 5c3d dd85 8a3d fb92 91bd 16aa 64bd
00000010: 00d6 46bd 041d 923c fdb1 493c fe38 653d
00000020: f4d4 793c 4508 f3ba 3dc8 8fbd 6ab3 823d
00000030: 89a4 9c3c 81ff 0b3a 9b1b 8d3d 42a6 263d
00000040: 614f 753d d898 89bc a4b8 32bc 7f51 043d
00000050: 3345 a83c 2cf3 87bd 53f6 80bd 04de cbbc
00000060: 4e98 81bd 2b13 09bc c59d febc 3fc8 8b3d
00000070: cd55 8abc e0fb a0bd 8ea2 8e3d b160 823d
00000080: 2329 013d 7b47 87bd 17e1 72bd d3b5 15bd
00000090: ec3f ab3c c390 503c c89e 373d 9a27 7bbc
000000a0: b4c6 6bbd 6bb8 92bc 45c3 f33b f812 b23c
000000b0: 1a45 10bd cfca 253d f438 3cbd dc3d 26bd
000000c0: d245 2cbb 3696 65bd ee37 3a3d 1fbc 683c
000000d0: 6a0d 38bd 2374 103b cbbf 5a3c b756 b7bc
000000e0: 627d 853d d235 593d 5c60 743d ebef 9b3d
000000f0: 162f 4b3d aa0c 9d3d 0547 073b 2896 843d
00000100: 2a13 733d 87c9 7bbd 110a 76bd 7975 533d
00000110: ecdb 63bd a676 c43c b461 2a3d c348 26bd
00000120: 5eb0 82bd 4c30 3f3d fb2d edbb 68d5 8fbd
00000130: 65e1 0abd 0668 fbbc a170 123b 92d7 b0bb
00000140: f39b 42bd 86f3 493b 8816 733d 2471 0cbd
00000150: 8500 82bc 5659 55bd c27d 33bd fbd5 b9bc
00000160: 697f 2a3d f9de 313d a7fa 873d 238b 53bd
00000170: 1101 3bbd 00fe 733d 45a1 4ebd a2bc 6e3d
00000180: 33a0 243d a431 6ebc 9883 483d 5b7c 2a3b
00000190: bde5 353d c559 5b3d c4dc 573d decb 123d
000001a0: 3922 1d3d 7991 4abd 42d3 653d 9f2d b3bd
000001b0: 97cb 683c 22d8 4bbd 7985 be3c 1779 a3bd
000001c0: 875a 1c3d 7274 12bd ed0c 6f3d 09d5 5f3d
000001d0: e485 ec3b e3b0 813d f66b 383d ec0d ed3c
000001e0: 55f7 c8bb 0fb8 74bd b78e 01bd 83a1 5bbd
000001f0: d3d1 3cbd 5d1d 743d a941 8abd 06b1 66bd
0.05384884 0.06763814 -0.071081124 -0.05582627 -0.04854393 0.017836101 0.012310502 0.055962555
0.015248526 -0.0018541893 -0.07020614 0.06381877 0.019121425 0.0005340502 0.06890031 0.0406859
0.059890155 -0.016796514 -0.01090828 0.032304283 0.02054081 -0.06638178 -0.062969826 -0.024886139
-0.06327878 -0.008366386 -0.03108109 0.06825303 -0.016886616 -0.07860541 0.069645986 0.06366099
0.03153337 -0.06605431 -0.059296694 -0.036550354 0.020904504 0.012729826 0.04482916 -0.015329266
-0.057562545 -0.017910203 0.0074390494 0.02173756 -0.03522215 0.040476616 -0.045952752 -0.040586337
-0.0026286733 -0.056051455 0.045463495 0.014205008 -0.044934668 0.002204188 0.013351391 -0.022380216
0.065180555 0.053029843 0.059662208 0.0761412 0.04960545 0.07668431 0.0020641696 0.064739525
0.05934445 -0.06147149 -0.060068194 0.051625703 -0.055629656 0.023982357 0.041597083 -0.040596735
-0.063812956 0.04667692 -0.0072381473 -0.07023126 -0.03390636 -0.03068925 0.0022344964 -0.0053967917
-0.047512006 0.0030815317 0.05934766 -0.034287587 -0.015869388 -0.05208715 -0.043821104 -0.022685042
0.041625414 0.043425534 0.06639605 -0.051646363 -0.045655314 0.059568405 -0.050446767 0.058285363
0.04019184 -0.014538202 0.048953623 0.0026014063 0.04440855 0.053552408 0.052700773 0.035838954
0.038362715 -0.04945514 0.056109674 -0.08748936 0.014208696 -0.049766667 0.023257004 -0.079820804
0.03817227 -0.035755582 0.058361936 0.054646526 0.0072181094 0.063325666 0.045024835 0.028937303
-0.006133 -0.059745844 -0.031630244 -0.053620826 -0.04609854 0.059598316 -0.06750805 -0.056321166
